{"format": "graph-model", "generatedBy": "2.10.0", "convertedBy": "TensorFlow.js Converter v4.1.0", "signature": {"inputs": {"input_1": {"name": "input_1:0", "dtype": "DT_FLOAT", "tensorShape": {"dim": [{"size": "-1"}, {"size": "256"}, {"size": "256"}, {"size": "3"}]}}}, "outputs": {"dense": {"name": "Identity:0", "dtype": "DT_FLOAT", "tensorShape": {"dim": [{"size": "-1"}, {"size": "150"}]}}}}, "modelTopology": {"node": [{"name": "StatefulPartitionedCall/sequential_1/dense/MatMul/ReadVariableOp", "op": "Const", "attr": {"value": {"tensor": {"dtype": "DT_FLOAT", "tensorShape": {"dim": [{"size": "1000"}, {"size": "150"}]}}}, "dtype": {"type": "DT_FLOAT"}}}, {"name": "StatefulPartitionedCall/sequential_1/dense/BiasAdd/ReadVariableOp", "op": "Const", "attr": {"dtype": {"type": "DT_FLOAT"}, "value": {"tensor": {"dtype": "DT_FLOAT", "tensorShape": {"dim": [{"size": "150"}]}}}}}, {"name": "input_1", "op": "Placeholder", "attr": {"shape": {"shape": {"dim": [{"size": "-1"}, {"size": "256"}, {"size": "256"}, {"size": "3"}]}}, "dtype": {"type": "DT_FLOAT"}}}, {"name": "StatefulPartitionedCall/sequential_1/keras_layer/StatefulPartitionedCall/StatefulPartitionedCall/StatefulPartitionedCall/stem/StatefulPartitionedCall/conv2d/Conv2D_weights", "op": "Const", "attr": {"dtype": {"type": "DT_FLOAT"}, "value": {"tensor": {"dtype": "DT_FLOAT", "tensorShape": {"dim": [{"size": "3"}, {"size": "3"}, {"size": "3"}, {"size": "24"}]}}}}}, {"name": "StatefulPartitionedCall/sequential_1/keras_layer/StatefulPartitionedCall/StatefulPartitionedCall/StatefulPartitionedCall/blocks_35/StatefulPartitionedCall/conv2d/Conv2D_weights", "op": "Const", "attr": {"value": {"tensor": {"dtype": "DT_FLOAT", "tensorShape": {"dim": [{"size": "1"}, {"size": "1"}, {"size": "256"}, {"size": "1536"}]}}}, "dtype": {"type": "DT_FLOAT"}}}, {"name": "StatefulPartitionedCall/sequential_1/keras_layer/StatefulPartitionedCall/StatefulPartitionedCall/StatefulPartitionedCall/stem/StatefulPartitionedCall/conv2d/Conv2D_bn_offset", "op": "Const", "attr": {"dtype": {"type": "DT_FLOAT"}, "value": {"tensor": {"dtype": "DT_FLOAT", "tensorShape": {"dim": [{"size": "24"}]}}}}}, {"name": "StatefulPartitionedCall/sequential_1/keras_layer/StatefulPartitionedCall/StatefulPartitionedCall/StatefulPartitionedCall/blocks_0/StatefulPartitionedCall/conv2d/Conv2D_weights", "op": "Const", "attr": {"value": {"tensor": {"dtype": "DT_FLOAT", "tensorShape": {"dim": [{"size": "3"}, {"size": "3"}, {"size": "24"}, {"size": "24"}]}}}, "dtype": {"type": "DT_FLOAT"}}}, {"name": "StatefulPartitionedCall/sequential_1/keras_layer/StatefulPartitionedCall/StatefulPartitionedCall/StatefulPartitionedCall/blocks_0/StatefulPartitionedCall/conv2d/Conv2D_bn_offset", "op": "Const", "attr": {"dtype": {"type": "DT_FLOAT"}, "value": {"tensor": {"dtype": "DT_FLOAT", "tensorShape": {"dim": [{"size": "24"}]}}}}}, {"name": "StatefulPartitionedCall/sequential_1/keras_layer/StatefulPartitionedCall/StatefulPartitionedCall/StatefulPartitionedCall/blocks_1/StatefulPartitionedCall/conv2d/Conv2D_weights", "op": "Const", "attr": {"dtype": {"type": "DT_FLOAT"}, "value": {"tensor": {"dtype": "DT_FLOAT", "tensorShape": {"dim": [{"size": "3"}, {"size": "3"}, {"size": "24"}, {"size": "24"}]}}}}}, {"name": "StatefulPartitionedCall/sequential_1/keras_layer/StatefulPartitionedCall/StatefulPartitionedCall/StatefulPartitionedCall/blocks_35/StatefulPartitionedCall/conv2d/Conv2D_bn_offset", "op": "Const", "attr": {"value": {"tensor": {"dtype": "DT_FLOAT", "tensorShape": {"dim": [{"size": "1536"}]}}}, "dtype": {"type": "DT_FLOAT"}}}, {"name": "StatefulPartitionedCall/sequential_1/keras_layer/StatefulPartitionedCall/StatefulPartitionedCall/StatefulPartitionedCall/blocks_1/StatefulPartitionedCall/conv2d/Conv2D_bn_offset", "op": "Const", "attr": {"dtype": {"type": "DT_FLOAT"}, "value": {"tensor": {"dtype": "DT_FLOAT", "tensorShape": {"dim": [{"size": "24"}]}}}}}, {"name": "StatefulPartitionedCall/sequential_1/keras_layer/StatefulPartitionedCall/StatefulPartitionedCall/StatefulPartitionedCall/blocks_2/StatefulPartitionedCall/conv2d/Conv2D_weights", "op": "Const", "attr": {"value": {"tensor": {"dtype": "DT_FLOAT", "tensorShape": {"dim": [{"size": "3"}, {"size": "3"}, {"size": "24"}, {"size": "96"}]}}}, "dtype": {"type": "DT_FLOAT"}}}, {"name": "StatefulPartitionedCall/sequential_1/keras_layer/StatefulPartitionedCall/StatefulPartitionedCall/StatefulPartitionedCall/blocks_2/StatefulPartitionedCall/conv2d/Conv2D_bn_offset", "op": "Const", "attr": {"dtype": {"type": "DT_FLOAT"}, "value": {"tensor": {"dtype": "DT_FLOAT", "tensorShape": {"dim": [{"size": "96"}]}}}}}, {"name": "StatefulPartitionedCall/sequential_1/keras_layer/StatefulPartitionedCall/StatefulPartitionedCall/StatefulPartitionedCall/blocks_2/StatefulPartitionedCall/conv2d_1/Conv2D_weights", "op": "Const", "attr": {"dtype": {"type": "DT_FLOAT"}, "value": {"tensor": {"dtype": "DT_FLOAT", "tensorShape": {"dim": [{"size": "1"}, {"size": "1"}, {"size": "96"}, {"size": "48"}]}}}}}, {"name": "StatefulPartitionedCall/sequential_1/keras_layer/StatefulPartitionedCall/StatefulPartitionedCall/StatefulPartitionedCall/blocks_2/StatefulPartitionedCall/conv2d_1/Conv2D_bn_offset", "op": "Const", "attr": {"dtype": {"type": "DT_FLOAT"}, "value": {"tensor": {"dtype": "DT_FLOAT", "tensorShape": {"dim": [{"size": "48"}]}}}}}, {"name": "StatefulPartitionedCall/sequential_1/keras_layer/StatefulPartitionedCall/StatefulPartitionedCall/StatefulPartitionedCall/blocks_3/StatefulPartitionedCall/conv2d/Conv2D_weights", "op": "Const", "attr": {"value": {"tensor": {"dtype": "DT_FLOAT", "tensorShape": {"dim": [{"size": "3"}, {"size": "3"}, {"size": "48"}, {"size": "192"}]}}}, "dtype": {"type": "DT_FLOAT"}}}, {"name": "StatefulPartitionedCall/sequential_1/keras_layer/StatefulPartitionedCall/StatefulPartitionedCall/StatefulPartitionedCall/blocks_3/StatefulPartitionedCall/conv2d/Conv2D_bn_offset", "op": "Const", "attr": {"dtype": {"type": "DT_FLOAT"}, "value": {"tensor": {"dtype": "DT_FLOAT", "tensorShape": {"dim": [{"size": "192"}]}}}}}, {"name": "StatefulPartitionedCall/sequential_1/keras_layer/StatefulPartitionedCall/StatefulPartitionedCall/StatefulPartitionedCall/blocks_3/StatefulPartitionedCall/conv2d_1/Conv2D_weights", "op": "Const", "attr": {"dtype": {"type": "DT_FLOAT"}, "value": {"tensor": {"dtype": "DT_FLOAT", "tensorShape": {"dim": [{"size": "1"}, {"size": "1"}, {"size": "192"}, {"size": "48"}]}}}}}, {"name": "StatefulPartitionedCall/sequential_1/keras_layer/StatefulPartitionedCall/StatefulPartitionedCall/StatefulPartitionedCall/blocks_35/StatefulPartitionedCall/depthwise_conv2d/depthwise_weights", "op": "Const", "attr": {"dtype": {"type": "DT_FLOAT"}, "value": {"tensor": {"dtype": "DT_FLOAT", "tensorShape": {"dim": [{"size": "3"}, {"size": "3"}, {"size": "1536"}, {"size": "1"}]}}}}}, {"name": "StatefulPartitionedCall/sequential_1/keras_layer/StatefulPartitionedCall/StatefulPartitionedCall/StatefulPartitionedCall/blocks_3/StatefulPartitionedCall/conv2d_1/Conv2D_bn_offset", "op": "Const", "attr": {"dtype": {"type": "DT_FLOAT"}, "value": {"tensor": {"dtype": "DT_FLOAT", "tensorShape": {"dim": [{"size": "48"}]}}}}}, {"name": "StatefulPartitionedCall/sequential_1/keras_layer/StatefulPartitionedCall/StatefulPartitionedCall/StatefulPartitionedCall/blocks_4/StatefulPartitionedCall/conv2d/Conv2D_weights", "op": "Const", "attr": {"dtype": {"type": "DT_FLOAT"}, "value": {"tensor": {"dtype": "DT_FLOAT", "tensorShape": {"dim": [{"size": "3"}, {"size": "3"}, {"size": "48"}, {"size": "192"}]}}}}}, {"name": "StatefulPartitionedCall/sequential_1/keras_layer/StatefulPartitionedCall/StatefulPartitionedCall/StatefulPartitionedCall/blocks_4/StatefulPartitionedCall/conv2d/Conv2D_bn_offset", "op": "Const", "attr": {"value": {"tensor": {"dtype": "DT_FLOAT", "tensorShape": {"dim": [{"size": "192"}]}}}, "dtype": {"type": "DT_FLOAT"}}}, {"name": "StatefulPartitionedCall/sequential_1/keras_layer/StatefulPartitionedCall/StatefulPartitionedCall/StatefulPartitionedCall/blocks_4/StatefulPartitionedCall/conv2d_1/Conv2D_weights", "op": "Const", "attr": {"dtype": {"type": "DT_FLOAT"}, "value": {"tensor": {"dtype": "DT_FLOAT", "tensorShape": {"dim": [{"size": "1"}, {"size": "1"}, {"size": "192"}, {"size": "48"}]}}}}}, {"name": "StatefulPartitionedCall/sequential_1/keras_layer/StatefulPartitionedCall/StatefulPartitionedCall/StatefulPartitionedCall/blocks_35/StatefulPartitionedCall/depthwise_conv2d/depthwise_bn_offset", "op": "Const", "attr": {"value": {"tensor": {"dtype": "DT_FLOAT", "tensorShape": {"dim": [{"size": "1536"}]}}}, "dtype": {"type": "DT_FLOAT"}}}, {"name": "StatefulPartitionedCall/sequential_1/keras_layer/StatefulPartitionedCall/StatefulPartitionedCall/StatefulPartitionedCall/blocks_4/StatefulPartitionedCall/conv2d_1/Conv2D_bn_offset", "op": "Const", "attr": {"value": {"tensor": {"dtype": "DT_FLOAT", "tensorShape": {"dim": [{"size": "48"}]}}}, "dtype": {"type": "DT_FLOAT"}}}, {"name": "StatefulPartitionedCall/sequential_1/keras_layer/StatefulPartitionedCall/StatefulPartitionedCall/StatefulPartitionedCall/blocks_5/StatefulPartitionedCall/conv2d/Conv2D_weights", "op": "Const", "attr": {"dtype": {"type": "DT_FLOAT"}, "value": {"tensor": {"dtype": "DT_FLOAT", "tensorShape": {"dim": [{"size": "3"}, {"size": "3"}, {"size": "48"}, {"size": "192"}]}}}}}, {"name": "StatefulPartitionedCall/sequential_1/keras_layer/StatefulPartitionedCall/StatefulPartitionedCall/StatefulPartitionedCall/blocks_5/StatefulPartitionedCall/conv2d/Conv2D_bn_offset", "op": "Const", "attr": {"value": {"tensor": {"dtype": "DT_FLOAT", "tensorShape": {"dim": [{"size": "192"}]}}}, "dtype": {"type": "DT_FLOAT"}}}, {"name": "StatefulPartitionedCall/sequential_1/keras_layer/StatefulPartitionedCall/StatefulPartitionedCall/StatefulPartitionedCall/blocks_5/StatefulPartitionedCall/conv2d_1/Conv2D_weights", "op": "Const", "attr": {"value": {"tensor": {"dtype": "DT_FLOAT", "tensorShape": {"dim": [{"size": "1"}, {"size": "1"}, {"size": "192"}, {"size": "48"}]}}}, "dtype": {"type": "DT_FLOAT"}}}, {"name": "StatefulPartitionedCall/sequential_1/keras_layer/StatefulPartitionedCall/StatefulPartitionedCall/StatefulPartitionedCall/blocks_5/StatefulPartitionedCall/conv2d_1/Conv2D_bn_offset", "op": "Const", "attr": {"value": {"tensor": {"dtype": "DT_FLOAT", "tensorShape": {"dim": [{"size": "48"}]}}}, "dtype": {"type": "DT_FLOAT"}}}, {"name": "StatefulPartitionedCall/sequential_1/keras_layer/StatefulPartitionedCall/StatefulPartitionedCall/StatefulPartitionedCall/blocks_6/StatefulPartitionedCall/conv2d/Conv2D_weights", "op": "Const", "attr": {"value": {"tensor": {"dtype": "DT_FLOAT", "tensorShape": {"dim": [{"size": "3"}, {"size": "3"}, {"size": "48"}, {"size": "192"}]}}}, "dtype": {"type": "DT_FLOAT"}}}, {"name": "StatefulPartitionedCall/sequential_1/keras_layer/StatefulPartitionedCall/StatefulPartitionedCall/StatefulPartitionedCall/blocks_6/StatefulPartitionedCall/conv2d/Conv2D_bn_offset", "op": "Const", "attr": {"dtype": {"type": "DT_FLOAT"}, "value": {"tensor": {"dtype": "DT_FLOAT", "tensorShape": {"dim": [{"size": "192"}]}}}}}, {"name": "StatefulPartitionedCall/sequential_1/keras_layer/StatefulPartitionedCall/StatefulPartitionedCall/StatefulPartitionedCall/blocks_6/StatefulPartitionedCall/conv2d_1/Conv2D_weights", "op": "Const", "attr": {"dtype": {"type": "DT_FLOAT"}, "value": {"tensor": {"dtype": "DT_FLOAT", "tensorShape": {"dim": [{"size": "1"}, {"size": "1"}, {"size": "192"}, {"size": "64"}]}}}}}, {"name": "StatefulPartitionedCall/sequential_1/keras_layer/StatefulPartitionedCall/StatefulPartitionedCall/StatefulPartitionedCall/blocks_6/StatefulPartitionedCall/conv2d_1/Conv2D_bn_offset", "op": "Const", "attr": {"value": {"tensor": {"dtype": "DT_FLOAT", "tensorShape": {"dim": [{"size": "64"}]}}}, "dtype": {"type": "DT_FLOAT"}}}, {"name": "StatefulPartitionedCall/sequential_1/keras_layer/StatefulPartitionedCall/StatefulPartitionedCall/StatefulPartitionedCall/blocks_7/StatefulPartitionedCall/conv2d/Conv2D_weights", "op": "Const", "attr": {"value": {"tensor": {"dtype": "DT_FLOAT", "tensorShape": {"dim": [{"size": "3"}, {"size": "3"}, {"size": "64"}, {"size": "256"}]}}}, "dtype": {"type": "DT_FLOAT"}}}, {"name": "StatefulPartitionedCall/sequential_1/keras_layer/StatefulPartitionedCall/StatefulPartitionedCall/StatefulPartitionedCall/blocks_7/StatefulPartitionedCall/conv2d/Conv2D_bn_offset", "op": "Const", "attr": {"value": {"tensor": {"dtype": "DT_FLOAT", "tensorShape": {"dim": [{"size": "256"}]}}}, "dtype": {"type": "DT_FLOAT"}}}, {"name": "StatefulPartitionedCall/sequential_1/keras_layer/StatefulPartitionedCall/StatefulPartitionedCall/StatefulPartitionedCall/blocks_7/StatefulPartitionedCall/conv2d_1/Conv2D_weights", "op": "Const", "attr": {"dtype": {"type": "DT_FLOAT"}, "value": {"tensor": {"dtype": "DT_FLOAT", "tensorShape": {"dim": [{"size": "1"}, {"size": "1"}, {"size": "256"}, {"size": "64"}]}}}}}, {"name": "StatefulPartitionedCall/sequential_1/keras_layer/StatefulPartitionedCall/StatefulPartitionedCall/StatefulPartitionedCall/blocks_7/StatefulPartitionedCall/conv2d_1/Conv2D_bn_offset", "op": "Const", "attr": {"dtype": {"type": "DT_FLOAT"}, "value": {"tensor": {"dtype": "DT_FLOAT", "tensorShape": {"dim": [{"size": "64"}]}}}}}, {"name": "StatefulPartitionedCall/sequential_1/keras_layer/StatefulPartitionedCall/StatefulPartitionedCall/StatefulPartitionedCall/blocks_8/StatefulPartitionedCall/conv2d/Conv2D_weights", "op": "Const", "attr": {"dtype": {"type": "DT_FLOAT"}, "value": {"tensor": {"dtype": "DT_FLOAT", "tensorShape": {"dim": [{"size": "3"}, {"size": "3"}, {"size": "64"}, {"size": "256"}]}}}}}, {"name": "StatefulPartitionedCall/sequential_1/keras_layer/StatefulPartitionedCall/StatefulPartitionedCall/StatefulPartitionedCall/blocks_8/StatefulPartitionedCall/conv2d/Conv2D_bn_offset", "op": "Const", "attr": {"dtype": {"type": "DT_FLOAT"}, "value": {"tensor": {"dtype": "DT_FLOAT", "tensorShape": {"dim": [{"size": "256"}]}}}}}, {"name": "StatefulPartitionedCall/sequential_1/keras_layer/StatefulPartitionedCall/StatefulPartitionedCall/StatefulPartitionedCall/blocks_8/StatefulPartitionedCall/conv2d_1/Conv2D_weights", "op": "Const", "attr": {"value": {"tensor": {"dtype": "DT_FLOAT", "tensorShape": {"dim": [{"size": "1"}, {"size": "1"}, {"size": "256"}, {"size": "64"}]}}}, "dtype": {"type": "DT_FLOAT"}}}, {"name": "StatefulPartitionedCall/sequential_1/keras_layer/StatefulPartitionedCall/StatefulPartitionedCall/StatefulPartitionedCall/blocks_8/StatefulPartitionedCall/conv2d_1/Conv2D_bn_offset", "op": "Const", "attr": {"dtype": {"type": "DT_FLOAT"}, "value": {"tensor": {"dtype": "DT_FLOAT", "tensorShape": {"dim": [{"size": "64"}]}}}}}, {"name": "StatefulPartitionedCall/sequential_1/keras_layer/StatefulPartitionedCall/StatefulPartitionedCall/StatefulPartitionedCall/blocks_9/StatefulPartitionedCall/conv2d/Conv2D_weights", "op": "Const", "attr": {"dtype": {"type": "DT_FLOAT"}, "value": {"tensor": {"dtype": "DT_FLOAT", "tensorShape": {"dim": [{"size": "3"}, {"size": "3"}, {"size": "64"}, {"size": "256"}]}}}}}, {"name": "StatefulPartitionedCall/sequential_1/keras_layer/StatefulPartitionedCall/StatefulPartitionedCall/StatefulPartitionedCall/blocks_9/StatefulPartitionedCall/conv2d/Conv2D_bn_offset", "op": "Const", "attr": {"dtype": {"type": "DT_FLOAT"}, "value": {"tensor": {"dtype": "DT_FLOAT", "tensorShape": {"dim": [{"size": "256"}]}}}}}, {"name": "StatefulPartitionedCall/sequential_1/keras_layer/StatefulPartitionedCall/StatefulPartitionedCall/StatefulPartitionedCall/blocks_9/StatefulPartitionedCall/conv2d_1/Conv2D_weights", "op": "Const", "attr": {"value": {"tensor": {"dtype": "DT_FLOAT", "tensorShape": {"dim": [{"size": "1"}, {"size": "1"}, {"size": "256"}, {"size": "64"}]}}}, "dtype": {"type": "DT_FLOAT"}}}, {"name": "StatefulPartitionedCall/sequential_1/keras_layer/StatefulPartitionedCall/StatefulPartitionedCall/StatefulPartitionedCall/blocks_9/StatefulPartitionedCall/conv2d_1/Conv2D_bn_offset", "op": "Const", "attr": {"value": {"tensor": {"dtype": "DT_FLOAT", "tensorShape": {"dim": [{"size": "64"}]}}}, "dtype": {"type": "DT_FLOAT"}}}, {"name": "StatefulPartitionedCall/sequential_1/keras_layer/StatefulPartitionedCall/StatefulPartitionedCall/StatefulPartitionedCall/blocks_10/StatefulPartitionedCall/conv2d/Conv2D_weights", "op": "Const", "attr": {"value": {"tensor": {"dtype": "DT_FLOAT", "tensorShape": {"dim": [{"size": "1"}, {"size": "1"}, {"size": "64"}, {"size": "256"}]}}}, "dtype": {"type": "DT_FLOAT"}}}, {"name": "StatefulPartitionedCall/sequential_1/keras_layer/StatefulPartitionedCall/StatefulPartitionedCall/StatefulPartitionedCall/blocks_10/StatefulPartitionedCall/conv2d/Conv2D_bn_offset", "op": "Const", "attr": {"value": {"tensor": {"dtype": "DT_FLOAT", "tensorShape": {"dim": [{"size": "256"}]}}}, "dtype": {"type": "DT_FLOAT"}}}, {"name": "StatefulPartitionedCall/sequential_1/keras_layer/StatefulPartitionedCall/StatefulPartitionedCall/StatefulPartitionedCall/blocks_10/StatefulPartitionedCall/depthwise_conv2d/depthwise_weights", "op": "Const", "attr": {"dtype": {"type": "DT_FLOAT"}, "value": {"tensor": {"dtype": "DT_FLOAT", "tensorShape": {"dim": [{"size": "3"}, {"size": "3"}, {"size": "256"}, {"size": "1"}]}}}}}, {"name": "StatefulPartitionedCall/sequential_1/keras_layer/StatefulPartitionedCall/StatefulPartitionedCall/StatefulPartitionedCall/blocks_10/StatefulPartitionedCall/depthwise_conv2d/depthwise_bn_offset", "op": "Const", "attr": {"dtype": {"type": "DT_FLOAT"}, "value": {"tensor": {"dtype": "DT_FLOAT", "tensorShape": {"dim": [{"size": "256"}]}}}}}, {"name": "StatefulPartitionedCall/sequential_1/keras_layer/StatefulPartitionedCall/StatefulPartitionedCall/StatefulPartitionedCall/blocks_35/StatefulPartitionedCall/conv2d_1/Conv2D_weights", "op": "Const", "attr": {"dtype": {"type": "DT_FLOAT"}, "value": {"tensor": {"dtype": "DT_FLOAT", "tensorShape": {"dim": [{"size": "1"}, {"size": "1"}, {"size": "1536"}, {"size": "256"}]}}}}}, {"name": "StatefulPartitionedCall/sequential_1/keras_layer/StatefulPartitionedCall/StatefulPartitionedCall/StatefulPartitionedCall/blocks_10/StatefulPartitionedCall/conv2d_1/Conv2D_weights", "op": "Const", "attr": {"dtype": {"type": "DT_FLOAT"}, "value": {"tensor": {"dtype": "DT_FLOAT", "tensorShape": {"dim": [{"size": "1"}, {"size": "1"}, {"size": "256"}, {"size": "128"}]}}}}}, {"name": "StatefulPartitionedCall/sequential_1/keras_layer/StatefulPartitionedCall/StatefulPartitionedCall/StatefulPartitionedCall/blocks_10/StatefulPartitionedCall/conv2d_1/Conv2D_bn_offset", "op": "Const", "attr": {"value": {"tensor": {"dtype": "DT_FLOAT", "tensorShape": {"dim": [{"size": "128"}]}}}, "dtype": {"type": "DT_FLOAT"}}}, {"name": "StatefulPartitionedCall/sequential_1/keras_layer/StatefulPartitionedCall/StatefulPartitionedCall/StatefulPartitionedCall/blocks_11/StatefulPartitionedCall/conv2d/Conv2D_weights", "op": "Const", "attr": {"dtype": {"type": "DT_FLOAT"}, "value": {"tensor": {"dtype": "DT_FLOAT", "tensorShape": {"dim": [{"size": "1"}, {"size": "1"}, {"size": "128"}, {"size": "512"}]}}}}}, {"name": "StatefulPartitionedCall/sequential_1/keras_layer/StatefulPartitionedCall/StatefulPartitionedCall/StatefulPartitionedCall/blocks_35/StatefulPartitionedCall/conv2d_1/Conv2D_bn_offset", "op": "Const", "attr": {"value": {"tensor": {"dtype": "DT_FLOAT", "tensorShape": {"dim": [{"size": "256"}]}}}, "dtype": {"type": "DT_FLOAT"}}}, {"name": "StatefulPartitionedCall/sequential_1/keras_layer/StatefulPartitionedCall/StatefulPartitionedCall/StatefulPartitionedCall/blocks_11/StatefulPartitionedCall/conv2d/Conv2D_bn_offset", "op": "Const", "attr": {"dtype": {"type": "DT_FLOAT"}, "value": {"tensor": {"dtype": "DT_FLOAT", "tensorShape": {"dim": [{"size": "512"}]}}}}}, {"name": "StatefulPartitionedCall/sequential_1/keras_layer/StatefulPartitionedCall/StatefulPartitionedCall/StatefulPartitionedCall/blocks_11/StatefulPartitionedCall/depthwise_conv2d/depthwise_weights", "op": "Const", "attr": {"dtype": {"type": "DT_FLOAT"}, "value": {"tensor": {"dtype": "DT_FLOAT", "tensorShape": {"dim": [{"size": "3"}, {"size": "3"}, {"size": "512"}, {"size": "1"}]}}}}}, {"name": "StatefulPartitionedCall/sequential_1/keras_layer/StatefulPartitionedCall/StatefulPartitionedCall/StatefulPartitionedCall/blocks_11/StatefulPartitionedCall/depthwise_conv2d/depthwise_bn_offset", "op": "Const", "attr": {"dtype": {"type": "DT_FLOAT"}, "value": {"tensor": {"dtype": "DT_FLOAT", "tensorShape": {"dim": [{"size": "512"}]}}}}}, {"name": "StatefulPartitionedCall/sequential_1/keras_layer/StatefulPartitionedCall/StatefulPartitionedCall/StatefulPartitionedCall/blocks_11/StatefulPartitionedCall/conv2d_1/Conv2D_weights", "op": "Const", "attr": {"value": {"tensor": {"dtype": "DT_FLOAT", "tensorShape": {"dim": [{"size": "1"}, {"size": "1"}, {"size": "512"}, {"size": "128"}]}}}, "dtype": {"type": "DT_FLOAT"}}}, {"name": "StatefulPartitionedCall/sequential_1/keras_layer/StatefulPartitionedCall/StatefulPartitionedCall/StatefulPartitionedCall/blocks_36/StatefulPartitionedCall/conv2d/Conv2D_weights", "op": "Const", "attr": {"value": {"tensor": {"dtype": "DT_FLOAT", "tensorShape": {"dim": [{"size": "1"}, {"size": "1"}, {"size": "256"}, {"size": "1536"}]}}}, "dtype": {"type": "DT_FLOAT"}}}, {"name": "StatefulPartitionedCall/sequential_1/keras_layer/StatefulPartitionedCall/StatefulPartitionedCall/StatefulPartitionedCall/blocks_11/StatefulPartitionedCall/conv2d_1/Conv2D_bn_offset", "op": "Const", "attr": {"dtype": {"type": "DT_FLOAT"}, "value": {"tensor": {"dtype": "DT_FLOAT", "tensorShape": {"dim": [{"size": "128"}]}}}}}, {"name": "StatefulPartitionedCall/sequential_1/keras_layer/StatefulPartitionedCall/StatefulPartitionedCall/StatefulPartitionedCall/blocks_12/StatefulPartitionedCall/conv2d/Conv2D_weights", "op": "Const", "attr": {"dtype": {"type": "DT_FLOAT"}, "value": {"tensor": {"dtype": "DT_FLOAT", "tensorShape": {"dim": [{"size": "1"}, {"size": "1"}, {"size": "128"}, {"size": "512"}]}}}}}, {"name": "StatefulPartitionedCall/sequential_1/keras_layer/StatefulPartitionedCall/StatefulPartitionedCall/StatefulPartitionedCall/blocks_12/StatefulPartitionedCall/conv2d/Conv2D_bn_offset", "op": "Const", "attr": {"value": {"tensor": {"dtype": "DT_FLOAT", "tensorShape": {"dim": [{"size": "512"}]}}}, "dtype": {"type": "DT_FLOAT"}}}, {"name": "StatefulPartitionedCall/sequential_1/keras_layer/StatefulPartitionedCall/StatefulPartitionedCall/StatefulPartitionedCall/blocks_12/StatefulPartitionedCall/depthwise_conv2d/depthwise_weights", "op": "Const", "attr": {"dtype": {"type": "DT_FLOAT"}, "value": {"tensor": {"dtype": "DT_FLOAT", "tensorShape": {"dim": [{"size": "3"}, {"size": "3"}, {"size": "512"}, {"size": "1"}]}}}}}, {"name": "StatefulPartitionedCall/sequential_1/keras_layer/StatefulPartitionedCall/StatefulPartitionedCall/StatefulPartitionedCall/blocks_12/StatefulPartitionedCall/depthwise_conv2d/depthwise_bn_offset", "op": "Const", "attr": {"value": {"tensor": {"dtype": "DT_FLOAT", "tensorShape": {"dim": [{"size": "512"}]}}}, "dtype": {"type": "DT_FLOAT"}}}, {"name": "StatefulPartitionedCall/sequential_1/keras_layer/StatefulPartitionedCall/StatefulPartitionedCall/StatefulPartitionedCall/blocks_36/StatefulPartitionedCall/conv2d/Conv2D_bn_offset", "op": "Const", "attr": {"dtype": {"type": "DT_FLOAT"}, "value": {"tensor": {"dtype": "DT_FLOAT", "tensorShape": {"dim": [{"size": "1536"}]}}}}}, {"name": "StatefulPartitionedCall/sequential_1/keras_layer/StatefulPartitionedCall/StatefulPartitionedCall/StatefulPartitionedCall/blocks_12/StatefulPartitionedCall/conv2d_1/Conv2D_weights", "op": "Const", "attr": {"dtype": {"type": "DT_FLOAT"}, "value": {"tensor": {"dtype": "DT_FLOAT", "tensorShape": {"dim": [{"size": "1"}, {"size": "1"}, {"size": "512"}, {"size": "128"}]}}}}}, {"name": "StatefulPartitionedCall/sequential_1/keras_layer/StatefulPartitionedCall/StatefulPartitionedCall/StatefulPartitionedCall/blocks_12/StatefulPartitionedCall/conv2d_1/Conv2D_bn_offset", "op": "Const", "attr": {"dtype": {"type": "DT_FLOAT"}, "value": {"tensor": {"dtype": "DT_FLOAT", "tensorShape": {"dim": [{"size": "128"}]}}}}}, {"name": "StatefulPartitionedCall/sequential_1/keras_layer/StatefulPartitionedCall/StatefulPartitionedCall/StatefulPartitionedCall/blocks_13/StatefulPartitionedCall/conv2d/Conv2D_weights", "op": "Const", "attr": {"dtype": {"type": "DT_FLOAT"}, "value": {"tensor": {"dtype": "DT_FLOAT", "tensorShape": {"dim": [{"size": "1"}, {"size": "1"}, {"size": "128"}, {"size": "512"}]}}}}}, {"name": "StatefulPartitionedCall/sequential_1/keras_layer/StatefulPartitionedCall/StatefulPartitionedCall/StatefulPartitionedCall/blocks_13/StatefulPartitionedCall/conv2d/Conv2D_bn_offset", "op": "Const", "attr": {"value": {"tensor": {"dtype": "DT_FLOAT", "tensorShape": {"dim": [{"size": "512"}]}}}, "dtype": {"type": "DT_FLOAT"}}}, {"name": "StatefulPartitionedCall/sequential_1/keras_layer/StatefulPartitionedCall/StatefulPartitionedCall/StatefulPartitionedCall/blocks_13/StatefulPartitionedCall/depthwise_conv2d/depthwise_weights", "op": "Const", "attr": {"value": {"tensor": {"dtype": "DT_FLOAT", "tensorShape": {"dim": [{"size": "3"}, {"size": "3"}, {"size": "512"}, {"size": "1"}]}}}, "dtype": {"type": "DT_FLOAT"}}}, {"name": "StatefulPartitionedCall/sequential_1/keras_layer/StatefulPartitionedCall/StatefulPartitionedCall/StatefulPartitionedCall/blocks_13/StatefulPartitionedCall/depthwise_conv2d/depthwise_bn_offset", "op": "Const", "attr": {"dtype": {"type": "DT_FLOAT"}, "value": {"tensor": {"dtype": "DT_FLOAT", "tensorShape": {"dim": [{"size": "512"}]}}}}}, {"name": "StatefulPartitionedCall/sequential_1/keras_layer/StatefulPartitionedCall/StatefulPartitionedCall/StatefulPartitionedCall/blocks_36/StatefulPartitionedCall/depthwise_conv2d/depthwise_weights", "op": "Const", "attr": {"dtype": {"type": "DT_FLOAT"}, "value": {"tensor": {"dtype": "DT_FLOAT", "tensorShape": {"dim": [{"size": "3"}, {"size": "3"}, {"size": "1536"}, {"size": "1"}]}}}}}, {"name": "StatefulPartitionedCall/sequential_1/keras_layer/StatefulPartitionedCall/StatefulPartitionedCall/StatefulPartitionedCall/blocks_13/StatefulPartitionedCall/conv2d_1/Conv2D_weights", "op": "Const", "attr": {"value": {"tensor": {"dtype": "DT_FLOAT", "tensorShape": {"dim": [{"size": "1"}, {"size": "1"}, {"size": "512"}, {"size": "128"}]}}}, "dtype": {"type": "DT_FLOAT"}}}, {"name": "StatefulPartitionedCall/sequential_1/keras_layer/StatefulPartitionedCall/StatefulPartitionedCall/StatefulPartitionedCall/blocks_36/StatefulPartitionedCall/depthwise_conv2d/depthwise_bn_offset", "op": "Const", "attr": {"value": {"tensor": {"dtype": "DT_FLOAT", "tensorShape": {"dim": [{"size": "1536"}]}}}, "dtype": {"type": "DT_FLOAT"}}}, {"name": "StatefulPartitionedCall/sequential_1/keras_layer/StatefulPartitionedCall/StatefulPartitionedCall/StatefulPartitionedCall/blocks_13/StatefulPartitionedCall/conv2d_1/Conv2D_bn_offset", "op": "Const", "attr": {"dtype": {"type": "DT_FLOAT"}, "value": {"tensor": {"dtype": "DT_FLOAT", "tensorShape": {"dim": [{"size": "128"}]}}}}}, {"name": "StatefulPartitionedCall/sequential_1/keras_layer/StatefulPartitionedCall/StatefulPartitionedCall/StatefulPartitionedCall/blocks_14/StatefulPartitionedCall/conv2d/Conv2D_weights", "op": "Const", "attr": {"dtype": {"type": "DT_FLOAT"}, "value": {"tensor": {"dtype": "DT_FLOAT", "tensorShape": {"dim": [{"size": "1"}, {"size": "1"}, {"size": "128"}, {"size": "512"}]}}}}}, {"name": "StatefulPartitionedCall/sequential_1/keras_layer/StatefulPartitionedCall/StatefulPartitionedCall/StatefulPartitionedCall/blocks_14/StatefulPartitionedCall/conv2d/Conv2D_bn_offset", "op": "Const", "attr": {"value": {"tensor": {"dtype": "DT_FLOAT", "tensorShape": {"dim": [{"size": "512"}]}}}, "dtype": {"type": "DT_FLOAT"}}}, {"name": "StatefulPartitionedCall/sequential_1/keras_layer/StatefulPartitionedCall/StatefulPartitionedCall/StatefulPartitionedCall/blocks_14/StatefulPartitionedCall/depthwise_conv2d/depthwise_weights", "op": "Const", "attr": {"value": {"tensor": {"dtype": "DT_FLOAT", "tensorShape": {"dim": [{"size": "3"}, {"size": "3"}, {"size": "512"}, {"size": "1"}]}}}, "dtype": {"type": "DT_FLOAT"}}}, {"name": "StatefulPartitionedCall/sequential_1/keras_layer/StatefulPartitionedCall/StatefulPartitionedCall/StatefulPartitionedCall/blocks_14/StatefulPartitionedCall/depthwise_conv2d/depthwise_bn_offset", "op": "Const", "attr": {"value": {"tensor": {"dtype": "DT_FLOAT", "tensorShape": {"dim": [{"size": "512"}]}}}, "dtype": {"type": "DT_FLOAT"}}}, {"name": "StatefulPartitionedCall/sequential_1/keras_layer/StatefulPartitionedCall/StatefulPartitionedCall/StatefulPartitionedCall/blocks_14/StatefulPartitionedCall/conv2d_1/Conv2D_weights", "op": "Const", "attr": {"dtype": {"type": "DT_FLOAT"}, "value": {"tensor": {"dtype": "DT_FLOAT", "tensorShape": {"dim": [{"size": "1"}, {"size": "1"}, {"size": "512"}, {"size": "128"}]}}}}}, {"name": "StatefulPartitionedCall/sequential_1/keras_layer/StatefulPartitionedCall/StatefulPartitionedCall/StatefulPartitionedCall/blocks_14/StatefulPartitionedCall/conv2d_1/Conv2D_bn_offset", "op": "Const", "attr": {"value": {"tensor": {"dtype": "DT_FLOAT", "tensorShape": {"dim": [{"size": "128"}]}}}, "dtype": {"type": "DT_FLOAT"}}}, {"name": "StatefulPartitionedCall/sequential_1/keras_layer/StatefulPartitionedCall/StatefulPartitionedCall/StatefulPartitionedCall/blocks_15/StatefulPartitionedCall/conv2d/Conv2D_weights", "op": "Const", "attr": {"dtype": {"type": "DT_FLOAT"}, "value": {"tensor": {"dtype": "DT_FLOAT", "tensorShape": {"dim": [{"size": "1"}, {"size": "1"}, {"size": "128"}, {"size": "512"}]}}}}}, {"name": "StatefulPartitionedCall/sequential_1/keras_layer/StatefulPartitionedCall/StatefulPartitionedCall/StatefulPartitionedCall/blocks_15/StatefulPartitionedCall/conv2d/Conv2D_bn_offset", "op": "Const", "attr": {"value": {"tensor": {"dtype": "DT_FLOAT", "tensorShape": {"dim": [{"size": "512"}]}}}, "dtype": {"type": "DT_FLOAT"}}}, {"name": "StatefulPartitionedCall/sequential_1/keras_layer/StatefulPartitionedCall/StatefulPartitionedCall/StatefulPartitionedCall/blocks_15/StatefulPartitionedCall/depthwise_conv2d/depthwise_weights", "op": "Const", "attr": {"value": {"tensor": {"dtype": "DT_FLOAT", "tensorShape": {"dim": [{"size": "3"}, {"size": "3"}, {"size": "512"}, {"size": "1"}]}}}, "dtype": {"type": "DT_FLOAT"}}}, {"name": "StatefulPartitionedCall/sequential_1/keras_layer/StatefulPartitionedCall/StatefulPartitionedCall/StatefulPartitionedCall/blocks_15/StatefulPartitionedCall/depthwise_conv2d/depthwise_bn_offset", "op": "Const", "attr": {"value": {"tensor": {"dtype": "DT_FLOAT", "tensorShape": {"dim": [{"size": "512"}]}}}, "dtype": {"type": "DT_FLOAT"}}}, {"name": "StatefulPartitionedCall/sequential_1/keras_layer/StatefulPartitionedCall/StatefulPartitionedCall/StatefulPartitionedCall/blocks_15/StatefulPartitionedCall/conv2d_1/Conv2D_weights", "op": "Const", "attr": {"value": {"tensor": {"dtype": "DT_FLOAT", "tensorShape": {"dim": [{"size": "1"}, {"size": "1"}, {"size": "512"}, {"size": "128"}]}}}, "dtype": {"type": "DT_FLOAT"}}}, {"name": "StatefulPartitionedCall/sequential_1/keras_layer/StatefulPartitionedCall/StatefulPartitionedCall/StatefulPartitionedCall/blocks_15/StatefulPartitionedCall/conv2d_1/Conv2D_bn_offset", "op": "Const", "attr": {"dtype": {"type": "DT_FLOAT"}, "value": {"tensor": {"dtype": "DT_FLOAT", "tensorShape": {"dim": [{"size": "128"}]}}}}}, {"name": "StatefulPartitionedCall/sequential_1/keras_layer/StatefulPartitionedCall/StatefulPartitionedCall/StatefulPartitionedCall/blocks_16/StatefulPartitionedCall/conv2d/Conv2D_weights", "op": "Const", "attr": {"value": {"tensor": {"dtype": "DT_FLOAT", "tensorShape": {"dim": [{"size": "1"}, {"size": "1"}, {"size": "128"}, {"size": "768"}]}}}, "dtype": {"type": "DT_FLOAT"}}}, {"name": "StatefulPartitionedCall/sequential_1/keras_layer/StatefulPartitionedCall/StatefulPartitionedCall/StatefulPartitionedCall/blocks_39/StatefulPartitionedCall/conv2d_1/Conv2D_weights", "op": "Const", "attr": {"dtype": {"type": "DT_FLOAT"}, "value": {"tensor": {"dtype": "DT_FLOAT", "tensorShape": {"dim": [{"size": "1"}, {"size": "1"}, {"size": "1536"}, {"size": "256"}]}}}}}, {"name": "StatefulPartitionedCall/sequential_1/keras_layer/StatefulPartitionedCall/StatefulPartitionedCall/StatefulPartitionedCall/blocks_16/StatefulPartitionedCall/conv2d/Conv2D_bn_offset", "op": "Const", "attr": {"value": {"tensor": {"dtype": "DT_FLOAT", "tensorShape": {"dim": [{"size": "768"}]}}}, "dtype": {"type": "DT_FLOAT"}}}, {"name": "StatefulPartitionedCall/sequential_1/keras_layer/StatefulPartitionedCall/StatefulPartitionedCall/StatefulPartitionedCall/blocks_16/StatefulPartitionedCall/depthwise_conv2d/depthwise_weights", "op": "Const", "attr": {"dtype": {"type": "DT_FLOAT"}, "value": {"tensor": {"dtype": "DT_FLOAT", "tensorShape": {"dim": [{"size": "3"}, {"size": "3"}, {"size": "768"}, {"size": "1"}]}}}}}, {"name": "StatefulPartitionedCall/sequential_1/keras_layer/StatefulPartitionedCall/StatefulPartitionedCall/StatefulPartitionedCall/blocks_16/StatefulPartitionedCall/depthwise_conv2d/depthwise_bn_offset", "op": "Const", "attr": {"value": {"tensor": {"dtype": "DT_FLOAT", "tensorShape": {"dim": [{"size": "768"}]}}}, "dtype": {"type": "DT_FLOAT"}}}, {"name": "StatefulPartitionedCall/sequential_1/keras_layer/StatefulPartitionedCall/StatefulPartitionedCall/StatefulPartitionedCall/blocks_16/StatefulPartitionedCall/conv2d_1/Conv2D_weights", "op": "Const", "attr": {"value": {"tensor": {"dtype": "DT_FLOAT", "tensorShape": {"dim": [{"size": "1"}, {"size": "1"}, {"size": "768"}, {"size": "160"}]}}}, "dtype": {"type": "DT_FLOAT"}}}, {"name": "StatefulPartitionedCall/sequential_1/keras_layer/StatefulPartitionedCall/StatefulPartitionedCall/StatefulPartitionedCall/blocks_16/StatefulPartitionedCall/conv2d_1/Conv2D_bn_offset", "op": "Const", "attr": {"value": {"tensor": {"dtype": "DT_FLOAT", "tensorShape": {"dim": [{"size": "160"}]}}}, "dtype": {"type": "DT_FLOAT"}}}, {"name": "StatefulPartitionedCall/sequential_1/keras_layer/StatefulPartitionedCall/StatefulPartitionedCall/StatefulPartitionedCall/blocks_17/StatefulPartitionedCall/conv2d/Conv2D_weights", "op": "Const", "attr": {"dtype": {"type": "DT_FLOAT"}, "value": {"tensor": {"dtype": "DT_FLOAT", "tensorShape": {"dim": [{"size": "1"}, {"size": "1"}, {"size": "160"}, {"size": "960"}]}}}}}, {"name": "StatefulPartitionedCall/sequential_1/keras_layer/StatefulPartitionedCall/StatefulPartitionedCall/StatefulPartitionedCall/blocks_36/StatefulPartitionedCall/conv2d_1/Conv2D_weights", "op": "Const", "attr": {"dtype": {"type": "DT_FLOAT"}, "value": {"tensor": {"dtype": "DT_FLOAT", "tensorShape": {"dim": [{"size": "1"}, {"size": "1"}, {"size": "1536"}, {"size": "256"}]}}}}}, {"name": "StatefulPartitionedCall/sequential_1/keras_layer/StatefulPartitionedCall/StatefulPartitionedCall/StatefulPartitionedCall/blocks_17/StatefulPartitionedCall/conv2d/Conv2D_bn_offset", "op": "Const", "attr": {"dtype": {"type": "DT_FLOAT"}, "value": {"tensor": {"dtype": "DT_FLOAT", "tensorShape": {"dim": [{"size": "960"}]}}}}}, {"name": "StatefulPartitionedCall/sequential_1/keras_layer/StatefulPartitionedCall/StatefulPartitionedCall/StatefulPartitionedCall/blocks_17/StatefulPartitionedCall/depthwise_conv2d/depthwise_weights", "op": "Const", "attr": {"dtype": {"type": "DT_FLOAT"}, "value": {"tensor": {"dtype": "DT_FLOAT", "tensorShape": {"dim": [{"size": "3"}, {"size": "3"}, {"size": "960"}, {"size": "1"}]}}}}}, {"name": "StatefulPartitionedCall/sequential_1/keras_layer/StatefulPartitionedCall/StatefulPartitionedCall/StatefulPartitionedCall/blocks_17/StatefulPartitionedCall/depthwise_conv2d/depthwise_bn_offset", "op": "Const", "attr": {"dtype": {"type": "DT_FLOAT"}, "value": {"tensor": {"dtype": "DT_FLOAT", "tensorShape": {"dim": [{"size": "960"}]}}}}}, {"name": "StatefulPartitionedCall/sequential_1/keras_layer/StatefulPartitionedCall/StatefulPartitionedCall/StatefulPartitionedCall/blocks_36/StatefulPartitionedCall/conv2d_1/Conv2D_bn_offset", "op": "Const", "attr": {"dtype": {"type": "DT_FLOAT"}, "value": {"tensor": {"dtype": "DT_FLOAT", "tensorShape": {"dim": [{"size": "256"}]}}}}}, {"name": "StatefulPartitionedCall/sequential_1/keras_layer/StatefulPartitionedCall/StatefulPartitionedCall/StatefulPartitionedCall/blocks_17/StatefulPartitionedCall/conv2d_1/Conv2D_weights", "op": "Const", "attr": {"value": {"tensor": {"dtype": "DT_FLOAT", "tensorShape": {"dim": [{"size": "1"}, {"size": "1"}, {"size": "960"}, {"size": "160"}]}}}, "dtype": {"type": "DT_FLOAT"}}}, {"name": "StatefulPartitionedCall/sequential_1/keras_layer/StatefulPartitionedCall/StatefulPartitionedCall/StatefulPartitionedCall/blocks_17/StatefulPartitionedCall/conv2d_1/Conv2D_bn_offset", "op": "Const", "attr": {"dtype": {"type": "DT_FLOAT"}, "value": {"tensor": {"dtype": "DT_FLOAT", "tensorShape": {"dim": [{"size": "160"}]}}}}}, {"name": "StatefulPartitionedCall/sequential_1/keras_layer/StatefulPartitionedCall/StatefulPartitionedCall/StatefulPartitionedCall/blocks_18/StatefulPartitionedCall/conv2d/Conv2D_weights", "op": "Const", "attr": {"value": {"tensor": {"dtype": "DT_FLOAT", "tensorShape": {"dim": [{"size": "1"}, {"size": "1"}, {"size": "160"}, {"size": "960"}]}}}, "dtype": {"type": "DT_FLOAT"}}}, {"name": "StatefulPartitionedCall/sequential_1/keras_layer/StatefulPartitionedCall/StatefulPartitionedCall/StatefulPartitionedCall/blocks_18/StatefulPartitionedCall/conv2d/Conv2D_bn_offset", "op": "Const", "attr": {"value": {"tensor": {"dtype": "DT_FLOAT", "tensorShape": {"dim": [{"size": "960"}]}}}, "dtype": {"type": "DT_FLOAT"}}}, {"name": "StatefulPartitionedCall/sequential_1/keras_layer/StatefulPartitionedCall/StatefulPartitionedCall/StatefulPartitionedCall/blocks_18/StatefulPartitionedCall/depthwise_conv2d/depthwise_weights", "op": "Const", "attr": {"dtype": {"type": "DT_FLOAT"}, "value": {"tensor": {"dtype": "DT_FLOAT", "tensorShape": {"dim": [{"size": "3"}, {"size": "3"}, {"size": "960"}, {"size": "1"}]}}}}}, {"name": "StatefulPartitionedCall/sequential_1/keras_layer/StatefulPartitionedCall/StatefulPartitionedCall/StatefulPartitionedCall/blocks_18/StatefulPartitionedCall/depthwise_conv2d/depthwise_bn_offset", "op": "Const", "attr": {"dtype": {"type": "DT_FLOAT"}, "value": {"tensor": {"dtype": "DT_FLOAT", "tensorShape": {"dim": [{"size": "960"}]}}}}}, {"name": "StatefulPartitionedCall/sequential_1/keras_layer/StatefulPartitionedCall/StatefulPartitionedCall/StatefulPartitionedCall/blocks_37/StatefulPartitionedCall/conv2d/Conv2D_weights", "op": "Const", "attr": {"dtype": {"type": "DT_FLOAT"}, "value": {"tensor": {"dtype": "DT_FLOAT", "tensorShape": {"dim": [{"size": "1"}, {"size": "1"}, {"size": "256"}, {"size": "1536"}]}}}}}, {"name": "StatefulPartitionedCall/sequential_1/keras_layer/StatefulPartitionedCall/StatefulPartitionedCall/StatefulPartitionedCall/blocks_39/StatefulPartitionedCall/conv2d_1/Conv2D_bn_offset", "op": "Const", "attr": {"dtype": {"type": "DT_FLOAT"}, "value": {"tensor": {"dtype": "DT_FLOAT", "tensorShape": {"dim": [{"size": "256"}]}}}}}, {"name": "StatefulPartitionedCall/sequential_1/keras_layer/StatefulPartitionedCall/StatefulPartitionedCall/StatefulPartitionedCall/blocks_18/StatefulPartitionedCall/conv2d_1/Conv2D_weights", "op": "Const", "attr": {"dtype": {"type": "DT_FLOAT"}, "value": {"tensor": {"dtype": "DT_FLOAT", "tensorShape": {"dim": [{"size": "1"}, {"size": "1"}, {"size": "960"}, {"size": "160"}]}}}}}, {"name": "StatefulPartitionedCall/sequential_1/keras_layer/StatefulPartitionedCall/StatefulPartitionedCall/StatefulPartitionedCall/blocks_37/StatefulPartitionedCall/conv2d/Conv2D_bn_offset", "op": "Const", "attr": {"value": {"tensor": {"dtype": "DT_FLOAT", "tensorShape": {"dim": [{"size": "1536"}]}}}, "dtype": {"type": "DT_FLOAT"}}}, {"name": "StatefulPartitionedCall/sequential_1/keras_layer/StatefulPartitionedCall/StatefulPartitionedCall/StatefulPartitionedCall/blocks_18/StatefulPartitionedCall/conv2d_1/Conv2D_bn_offset", "op": "Const", "attr": {"dtype": {"type": "DT_FLOAT"}, "value": {"tensor": {"dtype": "DT_FLOAT", "tensorShape": {"dim": [{"size": "160"}]}}}}}, {"name": "StatefulPartitionedCall/sequential_1/keras_layer/StatefulPartitionedCall/StatefulPartitionedCall/StatefulPartitionedCall/blocks_19/StatefulPartitionedCall/conv2d/Conv2D_weights", "op": "Const", "attr": {"dtype": {"type": "DT_FLOAT"}, "value": {"tensor": {"dtype": "DT_FLOAT", "tensorShape": {"dim": [{"size": "1"}, {"size": "1"}, {"size": "160"}, {"size": "960"}]}}}}}, {"name": "StatefulPartitionedCall/sequential_1/keras_layer/StatefulPartitionedCall/StatefulPartitionedCall/StatefulPartitionedCall/blocks_19/StatefulPartitionedCall/conv2d/Conv2D_bn_offset", "op": "Const", "attr": {"dtype": {"type": "DT_FLOAT"}, "value": {"tensor": {"dtype": "DT_FLOAT", "tensorShape": {"dim": [{"size": "960"}]}}}}}, {"name": "StatefulPartitionedCall/sequential_1/keras_layer/StatefulPartitionedCall/StatefulPartitionedCall/StatefulPartitionedCall/blocks_19/StatefulPartitionedCall/depthwise_conv2d/depthwise_weights", "op": "Const", "attr": {"dtype": {"type": "DT_FLOAT"}, "value": {"tensor": {"dtype": "DT_FLOAT", "tensorShape": {"dim": [{"size": "3"}, {"size": "3"}, {"size": "960"}, {"size": "1"}]}}}}}, {"name": "StatefulPartitionedCall/sequential_1/keras_layer/StatefulPartitionedCall/StatefulPartitionedCall/StatefulPartitionedCall/blocks_19/StatefulPartitionedCall/depthwise_conv2d/depthwise_bn_offset", "op": "Const", "attr": {"dtype": {"type": "DT_FLOAT"}, "value": {"tensor": {"dtype": "DT_FLOAT", "tensorShape": {"dim": [{"size": "960"}]}}}}}, {"name": "StatefulPartitionedCall/sequential_1/keras_layer/StatefulPartitionedCall/StatefulPartitionedCall/StatefulPartitionedCall/blocks_19/StatefulPartitionedCall/conv2d_1/Conv2D_weights", "op": "Const", "attr": {"value": {"tensor": {"dtype": "DT_FLOAT", "tensorShape": {"dim": [{"size": "1"}, {"size": "1"}, {"size": "960"}, {"size": "160"}]}}}, "dtype": {"type": "DT_FLOAT"}}}, {"name": "StatefulPartitionedCall/sequential_1/keras_layer/StatefulPartitionedCall/StatefulPartitionedCall/StatefulPartitionedCall/blocks_37/StatefulPartitionedCall/depthwise_conv2d/depthwise_weights", "op": "Const", "attr": {"dtype": {"type": "DT_FLOAT"}, "value": {"tensor": {"dtype": "DT_FLOAT", "tensorShape": {"dim": [{"size": "3"}, {"size": "3"}, {"size": "1536"}, {"size": "1"}]}}}}}, {"name": "StatefulPartitionedCall/sequential_1/keras_layer/StatefulPartitionedCall/StatefulPartitionedCall/StatefulPartitionedCall/blocks_19/StatefulPartitionedCall/conv2d_1/Conv2D_bn_offset", "op": "Const", "attr": {"dtype": {"type": "DT_FLOAT"}, "value": {"tensor": {"dtype": "DT_FLOAT", "tensorShape": {"dim": [{"size": "160"}]}}}}}, {"name": "StatefulPartitionedCall/sequential_1/keras_layer/StatefulPartitionedCall/StatefulPartitionedCall/StatefulPartitionedCall/blocks_20/StatefulPartitionedCall/conv2d/Conv2D_weights", "op": "Const", "attr": {"value": {"tensor": {"dtype": "DT_FLOAT", "tensorShape": {"dim": [{"size": "1"}, {"size": "1"}, {"size": "160"}, {"size": "960"}]}}}, "dtype": {"type": "DT_FLOAT"}}}, {"name": "StatefulPartitionedCall/sequential_1/keras_layer/StatefulPartitionedCall/StatefulPartitionedCall/StatefulPartitionedCall/blocks_20/StatefulPartitionedCall/conv2d/Conv2D_bn_offset", "op": "Const", "attr": {"dtype": {"type": "DT_FLOAT"}, "value": {"tensor": {"dtype": "DT_FLOAT", "tensorShape": {"dim": [{"size": "960"}]}}}}}, {"name": "StatefulPartitionedCall/sequential_1/keras_layer/StatefulPartitionedCall/StatefulPartitionedCall/StatefulPartitionedCall/blocks_20/StatefulPartitionedCall/depthwise_conv2d/depthwise_weights", "op": "Const", "attr": {"value": {"tensor": {"dtype": "DT_FLOAT", "tensorShape": {"dim": [{"size": "3"}, {"size": "3"}, {"size": "960"}, {"size": "1"}]}}}, "dtype": {"type": "DT_FLOAT"}}}, {"name": "StatefulPartitionedCall/sequential_1/keras_layer/StatefulPartitionedCall/StatefulPartitionedCall/StatefulPartitionedCall/blocks_20/StatefulPartitionedCall/depthwise_conv2d/depthwise_bn_offset", "op": "Const", "attr": {"dtype": {"type": "DT_FLOAT"}, "value": {"tensor": {"dtype": "DT_FLOAT", "tensorShape": {"dim": [{"size": "960"}]}}}}}, {"name": "StatefulPartitionedCall/sequential_1/keras_layer/StatefulPartitionedCall/StatefulPartitionedCall/StatefulPartitionedCall/blocks_37/StatefulPartitionedCall/depthwise_conv2d/depthwise_bn_offset", "op": "Const", "attr": {"dtype": {"type": "DT_FLOAT"}, "value": {"tensor": {"dtype": "DT_FLOAT", "tensorShape": {"dim": [{"size": "1536"}]}}}}}, {"name": "StatefulPartitionedCall/sequential_1/keras_layer/StatefulPartitionedCall/StatefulPartitionedCall/StatefulPartitionedCall/blocks_20/StatefulPartitionedCall/conv2d_1/Conv2D_weights", "op": "Const", "attr": {"value": {"tensor": {"dtype": "DT_FLOAT", "tensorShape": {"dim": [{"size": "1"}, {"size": "1"}, {"size": "960"}, {"size": "160"}]}}}, "dtype": {"type": "DT_FLOAT"}}}, {"name": "StatefulPartitionedCall/sequential_1/keras_layer/StatefulPartitionedCall/StatefulPartitionedCall/StatefulPartitionedCall/blocks_20/StatefulPartitionedCall/conv2d_1/Conv2D_bn_offset", "op": "Const", "attr": {"dtype": {"type": "DT_FLOAT"}, "value": {"tensor": {"dtype": "DT_FLOAT", "tensorShape": {"dim": [{"size": "160"}]}}}}}, {"name": "StatefulPartitionedCall/sequential_1/keras_layer/StatefulPartitionedCall/StatefulPartitionedCall/StatefulPartitionedCall/blocks_21/StatefulPartitionedCall/conv2d/Conv2D_weights", "op": "Const", "attr": {"dtype": {"type": "DT_FLOAT"}, "value": {"tensor": {"dtype": "DT_FLOAT", "tensorShape": {"dim": [{"size": "1"}, {"size": "1"}, {"size": "160"}, {"size": "960"}]}}}}}, {"name": "StatefulPartitionedCall/sequential_1/keras_layer/StatefulPartitionedCall/StatefulPartitionedCall/StatefulPartitionedCall/blocks_21/StatefulPartitionedCall/conv2d/Conv2D_bn_offset", "op": "Const", "attr": {"dtype": {"type": "DT_FLOAT"}, "value": {"tensor": {"dtype": "DT_FLOAT", "tensorShape": {"dim": [{"size": "960"}]}}}}}, {"name": "StatefulPartitionedCall/sequential_1/keras_layer/StatefulPartitionedCall/StatefulPartitionedCall/StatefulPartitionedCall/blocks_21/StatefulPartitionedCall/depthwise_conv2d/depthwise_weights", "op": "Const", "attr": {"value": {"tensor": {"dtype": "DT_FLOAT", "tensorShape": {"dim": [{"size": "3"}, {"size": "3"}, {"size": "960"}, {"size": "1"}]}}}, "dtype": {"type": "DT_FLOAT"}}}, {"name": "StatefulPartitionedCall/sequential_1/keras_layer/StatefulPartitionedCall/StatefulPartitionedCall/StatefulPartitionedCall/blocks_21/StatefulPartitionedCall/depthwise_conv2d/depthwise_bn_offset", "op": "Const", "attr": {"value": {"tensor": {"dtype": "DT_FLOAT", "tensorShape": {"dim": [{"size": "960"}]}}}, "dtype": {"type": "DT_FLOAT"}}}, {"name": "StatefulPartitionedCall/sequential_1/keras_layer/StatefulPartitionedCall/StatefulPartitionedCall/StatefulPartitionedCall/blocks_21/StatefulPartitionedCall/conv2d_1/Conv2D_weights", "op": "Const", "attr": {"dtype": {"type": "DT_FLOAT"}, "value": {"tensor": {"dtype": "DT_FLOAT", "tensorShape": {"dim": [{"size": "1"}, {"size": "1"}, {"size": "960"}, {"size": "160"}]}}}}}, {"name": "StatefulPartitionedCall/sequential_1/keras_layer/StatefulPartitionedCall/StatefulPartitionedCall/StatefulPartitionedCall/blocks_21/StatefulPartitionedCall/conv2d_1/Conv2D_bn_offset", "op": "Const", "attr": {"value": {"tensor": {"dtype": "DT_FLOAT", "tensorShape": {"dim": [{"size": "160"}]}}}, "dtype": {"type": "DT_FLOAT"}}}, {"name": "StatefulPartitionedCall/sequential_1/keras_layer/StatefulPartitionedCall/StatefulPartitionedCall/StatefulPartitionedCall/blocks_22/StatefulPartitionedCall/conv2d/Conv2D_weights", "op": "Const", "attr": {"value": {"tensor": {"dtype": "DT_FLOAT", "tensorShape": {"dim": [{"size": "1"}, {"size": "1"}, {"size": "160"}, {"size": "960"}]}}}, "dtype": {"type": "DT_FLOAT"}}}, {"name": "StatefulPartitionedCall/sequential_1/keras_layer/StatefulPartitionedCall/StatefulPartitionedCall/StatefulPartitionedCall/blocks_22/StatefulPartitionedCall/conv2d/Conv2D_bn_offset", "op": "Const", "attr": {"value": {"tensor": {"dtype": "DT_FLOAT", "tensorShape": {"dim": [{"size": "960"}]}}}, "dtype": {"type": "DT_FLOAT"}}}, {"name": "StatefulPartitionedCall/sequential_1/keras_layer/StatefulPartitionedCall/StatefulPartitionedCall/StatefulPartitionedCall/blocks_22/StatefulPartitionedCall/depthwise_conv2d/depthwise_weights", "op": "Const", "attr": {"value": {"tensor": {"dtype": "DT_FLOAT", "tensorShape": {"dim": [{"size": "3"}, {"size": "3"}, {"size": "960"}, {"size": "1"}]}}}, "dtype": {"type": "DT_FLOAT"}}}, {"name": "StatefulPartitionedCall/sequential_1/keras_layer/StatefulPartitionedCall/StatefulPartitionedCall/StatefulPartitionedCall/blocks_22/StatefulPartitionedCall/depthwise_conv2d/depthwise_bn_offset", "op": "Const", "attr": {"dtype": {"type": "DT_FLOAT"}, "value": {"tensor": {"dtype": "DT_FLOAT", "tensorShape": {"dim": [{"size": "960"}]}}}}}, {"name": "StatefulPartitionedCall/sequential_1/keras_layer/StatefulPartitionedCall/StatefulPartitionedCall/StatefulPartitionedCall/blocks_22/StatefulPartitionedCall/conv2d_1/Conv2D_weights", "op": "Const", "attr": {"dtype": {"type": "DT_FLOAT"}, "value": {"tensor": {"dtype": "DT_FLOAT", "tensorShape": {"dim": [{"size": "1"}, {"size": "1"}, {"size": "960"}, {"size": "160"}]}}}}}, {"name": "StatefulPartitionedCall/sequential_1/keras_layer/StatefulPartitionedCall/StatefulPartitionedCall/StatefulPartitionedCall/blocks_22/StatefulPartitionedCall/conv2d_1/Conv2D_bn_offset", "op": "Const", "attr": {"value": {"tensor": {"dtype": "DT_FLOAT", "tensorShape": {"dim": [{"size": "160"}]}}}, "dtype": {"type": "DT_FLOAT"}}}, {"name": "StatefulPartitionedCall/sequential_1/keras_layer/StatefulPartitionedCall/StatefulPartitionedCall/StatefulPartitionedCall/blocks_23/StatefulPartitionedCall/conv2d/Conv2D_weights", "op": "Const", "attr": {"dtype": {"type": "DT_FLOAT"}, "value": {"tensor": {"dtype": "DT_FLOAT", "tensorShape": {"dim": [{"size": "1"}, {"size": "1"}, {"size": "160"}, {"size": "960"}]}}}}}, {"name": "StatefulPartitionedCall/sequential_1/keras_layer/StatefulPartitionedCall/StatefulPartitionedCall/StatefulPartitionedCall/blocks_23/StatefulPartitionedCall/conv2d/Conv2D_bn_offset", "op": "Const", "attr": {"dtype": {"type": "DT_FLOAT"}, "value": {"tensor": {"dtype": "DT_FLOAT", "tensorShape": {"dim": [{"size": "960"}]}}}}}, {"name": "StatefulPartitionedCall/sequential_1/keras_layer/StatefulPartitionedCall/StatefulPartitionedCall/StatefulPartitionedCall/blocks_23/StatefulPartitionedCall/depthwise_conv2d/depthwise_weights", "op": "Const", "attr": {"value": {"tensor": {"dtype": "DT_FLOAT", "tensorShape": {"dim": [{"size": "3"}, {"size": "3"}, {"size": "960"}, {"size": "1"}]}}}, "dtype": {"type": "DT_FLOAT"}}}, {"name": "StatefulPartitionedCall/sequential_1/keras_layer/StatefulPartitionedCall/StatefulPartitionedCall/StatefulPartitionedCall/blocks_23/StatefulPartitionedCall/depthwise_conv2d/depthwise_bn_offset", "op": "Const", "attr": {"dtype": {"type": "DT_FLOAT"}, "value": {"tensor": {"dtype": "DT_FLOAT", "tensorShape": {"dim": [{"size": "960"}]}}}}}, {"name": "StatefulPartitionedCall/sequential_1/keras_layer/StatefulPartitionedCall/StatefulPartitionedCall/StatefulPartitionedCall/blocks_37/StatefulPartitionedCall/conv2d_1/Conv2D_weights", "op": "Const", "attr": {"dtype": {"type": "DT_FLOAT"}, "value": {"tensor": {"dtype": "DT_FLOAT", "tensorShape": {"dim": [{"size": "1"}, {"size": "1"}, {"size": "1536"}, {"size": "256"}]}}}}}, {"name": "StatefulPartitionedCall/sequential_1/keras_layer/StatefulPartitionedCall/StatefulPartitionedCall/StatefulPartitionedCall/blocks_23/StatefulPartitionedCall/conv2d_1/Conv2D_weights", "op": "Const", "attr": {"dtype": {"type": "DT_FLOAT"}, "value": {"tensor": {"dtype": "DT_FLOAT", "tensorShape": {"dim": [{"size": "1"}, {"size": "1"}, {"size": "960"}, {"size": "160"}]}}}}}, {"name": "StatefulPartitionedCall/sequential_1/keras_layer/StatefulPartitionedCall/StatefulPartitionedCall/StatefulPartitionedCall/head/StatefulPartitionedCall/conv2d/Conv2D_weights", "op": "Const", "attr": {"dtype": {"type": "DT_FLOAT"}, "value": {"tensor": {"dtype": "DT_FLOAT", "tensorShape": {"dim": [{"size": "1"}, {"size": "1"}, {"size": "256"}, {"size": "1280"}]}}}}}, {"name": "StatefulPartitionedCall/sequential_1/keras_layer/StatefulPartitionedCall/StatefulPartitionedCall/StatefulPartitionedCall/blocks_23/StatefulPartitionedCall/conv2d_1/Conv2D_bn_offset", "op": "Const", "attr": {"value": {"tensor": {"dtype": "DT_FLOAT", "tensorShape": {"dim": [{"size": "160"}]}}}, "dtype": {"type": "DT_FLOAT"}}}, {"name": "StatefulPartitionedCall/sequential_1/keras_layer/StatefulPartitionedCall/StatefulPartitionedCall/StatefulPartitionedCall/blocks_24/StatefulPartitionedCall/conv2d/Conv2D_weights", "op": "Const", "attr": {"value": {"tensor": {"dtype": "DT_FLOAT", "tensorShape": {"dim": [{"size": "1"}, {"size": "1"}, {"size": "160"}, {"size": "960"}]}}}, "dtype": {"type": "DT_FLOAT"}}}, {"name": "StatefulPartitionedCall/sequential_1/keras_layer/StatefulPartitionedCall/StatefulPartitionedCall/StatefulPartitionedCall/blocks_37/StatefulPartitionedCall/conv2d_1/Conv2D_bn_offset", "op": "Const", "attr": {"dtype": {"type": "DT_FLOAT"}, "value": {"tensor": {"dtype": "DT_FLOAT", "tensorShape": {"dim": [{"size": "256"}]}}}}}, {"name": "StatefulPartitionedCall/sequential_1/keras_layer/StatefulPartitionedCall/StatefulPartitionedCall/StatefulPartitionedCall/blocks_24/StatefulPartitionedCall/conv2d/Conv2D_bn_offset", "op": "Const", "attr": {"dtype": {"type": "DT_FLOAT"}, "value": {"tensor": {"dtype": "DT_FLOAT", "tensorShape": {"dim": [{"size": "960"}]}}}}}, {"name": "StatefulPartitionedCall/sequential_1/keras_layer/StatefulPartitionedCall/StatefulPartitionedCall/StatefulPartitionedCall/blocks_24/StatefulPartitionedCall/depthwise_conv2d/depthwise_weights", "op": "Const", "attr": {"dtype": {"type": "DT_FLOAT"}, "value": {"tensor": {"dtype": "DT_FLOAT", "tensorShape": {"dim": [{"size": "3"}, {"size": "3"}, {"size": "960"}, {"size": "1"}]}}}}}, {"name": "StatefulPartitionedCall/sequential_1/keras_layer/StatefulPartitionedCall/StatefulPartitionedCall/StatefulPartitionedCall/blocks_24/StatefulPartitionedCall/depthwise_conv2d/depthwise_bn_offset", "op": "Const", "attr": {"value": {"tensor": {"dtype": "DT_FLOAT", "tensorShape": {"dim": [{"size": "960"}]}}}, "dtype": {"type": "DT_FLOAT"}}}, {"name": "StatefulPartitionedCall/sequential_1/keras_layer/StatefulPartitionedCall/StatefulPartitionedCall/StatefulPartitionedCall/blocks_24/StatefulPartitionedCall/conv2d_1/Conv2D_weights", "op": "Const", "attr": {"value": {"tensor": {"dtype": "DT_FLOAT", "tensorShape": {"dim": [{"size": "1"}, {"size": "1"}, {"size": "960"}, {"size": "160"}]}}}, "dtype": {"type": "DT_FLOAT"}}}, {"name": "StatefulPartitionedCall/sequential_1/keras_layer/StatefulPartitionedCall/StatefulPartitionedCall/StatefulPartitionedCall/blocks_38/StatefulPartitionedCall/conv2d/Conv2D_weights", "op": "Const", "attr": {"value": {"tensor": {"dtype": "DT_FLOAT", "tensorShape": {"dim": [{"size": "1"}, {"size": "1"}, {"size": "256"}, {"size": "1536"}]}}}, "dtype": {"type": "DT_FLOAT"}}}, {"name": "StatefulPartitionedCall/sequential_1/keras_layer/StatefulPartitionedCall/StatefulPartitionedCall/StatefulPartitionedCall/blocks_24/StatefulPartitionedCall/conv2d_1/Conv2D_bn_offset", "op": "Const", "attr": {"dtype": {"type": "DT_FLOAT"}, "value": {"tensor": {"dtype": "DT_FLOAT", "tensorShape": {"dim": [{"size": "160"}]}}}}}, {"name": "StatefulPartitionedCall/sequential_1/keras_layer/StatefulPartitionedCall/StatefulPartitionedCall/StatefulPartitionedCall/blocks_25/StatefulPartitionedCall/conv2d/Conv2D_weights", "op": "Const", "attr": {"value": {"tensor": {"dtype": "DT_FLOAT", "tensorShape": {"dim": [{"size": "1"}, {"size": "1"}, {"size": "160"}, {"size": "960"}]}}}, "dtype": {"type": "DT_FLOAT"}}}, {"name": "StatefulPartitionedCall/sequential_1/keras_layer/StatefulPartitionedCall/StatefulPartitionedCall/StatefulPartitionedCall/blocks_25/StatefulPartitionedCall/conv2d/Conv2D_bn_offset", "op": "Const", "attr": {"value": {"tensor": {"dtype": "DT_FLOAT", "tensorShape": {"dim": [{"size": "960"}]}}}, "dtype": {"type": "DT_FLOAT"}}}, {"name": "StatefulPartitionedCall/sequential_1/keras_layer/StatefulPartitionedCall/StatefulPartitionedCall/StatefulPartitionedCall/blocks_25/StatefulPartitionedCall/depthwise_conv2d/depthwise_weights", "op": "Const", "attr": {"value": {"tensor": {"dtype": "DT_FLOAT", "tensorShape": {"dim": [{"size": "3"}, {"size": "3"}, {"size": "960"}, {"size": "1"}]}}}, "dtype": {"type": "DT_FLOAT"}}}, {"name": "StatefulPartitionedCall/sequential_1/keras_layer/StatefulPartitionedCall/StatefulPartitionedCall/StatefulPartitionedCall/blocks_25/StatefulPartitionedCall/depthwise_conv2d/depthwise_bn_offset", "op": "Const", "attr": {"value": {"tensor": {"dtype": "DT_FLOAT", "tensorShape": {"dim": [{"size": "960"}]}}}, "dtype": {"type": "DT_FLOAT"}}}, {"name": "StatefulPartitionedCall/sequential_1/keras_layer/StatefulPartitionedCall/StatefulPartitionedCall/StatefulPartitionedCall/blocks_38/StatefulPartitionedCall/conv2d/Conv2D_bn_offset", "op": "Const", "attr": {"dtype": {"type": "DT_FLOAT"}, "value": {"tensor": {"dtype": "DT_FLOAT", "tensorShape": {"dim": [{"size": "1536"}]}}}}}, {"name": "StatefulPartitionedCall/sequential_1/keras_layer/StatefulPartitionedCall/StatefulPartitionedCall/StatefulPartitionedCall/blocks_25/StatefulPartitionedCall/conv2d_1/Conv2D_weights", "op": "Const", "attr": {"value": {"tensor": {"dtype": "DT_FLOAT", "tensorShape": {"dim": [{"size": "1"}, {"size": "1"}, {"size": "960"}, {"size": "256"}]}}}, "dtype": {"type": "DT_FLOAT"}}}, {"name": "StatefulPartitionedCall/sequential_1/keras_layer/StatefulPartitionedCall/StatefulPartitionedCall/StatefulPartitionedCall/blocks_25/StatefulPartitionedCall/conv2d_1/Conv2D_bn_offset", "op": "Const", "attr": {"value": {"tensor": {"dtype": "DT_FLOAT", "tensorShape": {"dim": [{"size": "256"}]}}}, "dtype": {"type": "DT_FLOAT"}}}, {"name": "StatefulPartitionedCall/sequential_1/keras_layer/StatefulPartitionedCall/StatefulPartitionedCall/StatefulPartitionedCall/blocks_26/StatefulPartitionedCall/conv2d/Conv2D_weights", "op": "Const", "attr": {"dtype": {"type": "DT_FLOAT"}, "value": {"tensor": {"dtype": "DT_FLOAT", "tensorShape": {"dim": [{"size": "1"}, {"size": "1"}, {"size": "256"}, {"size": "1536"}]}}}}}, {"name": "StatefulPartitionedCall/sequential_1/keras_layer/StatefulPartitionedCall/StatefulPartitionedCall/StatefulPartitionedCall/blocks_26/StatefulPartitionedCall/conv2d/Conv2D_bn_offset", "op": "Const", "attr": {"dtype": {"type": "DT_FLOAT"}, "value": {"tensor": {"dtype": "DT_FLOAT", "tensorShape": {"dim": [{"size": "1536"}]}}}}}, {"name": "StatefulPartitionedCall/sequential_1/keras_layer/StatefulPartitionedCall/StatefulPartitionedCall/StatefulPartitionedCall/blocks_26/StatefulPartitionedCall/depthwise_conv2d/depthwise_weights", "op": "Const", "attr": {"value": {"tensor": {"dtype": "DT_FLOAT", "tensorShape": {"dim": [{"size": "3"}, {"size": "3"}, {"size": "1536"}, {"size": "1"}]}}}, "dtype": {"type": "DT_FLOAT"}}}, {"name": "StatefulPartitionedCall/sequential_1/keras_layer/StatefulPartitionedCall/StatefulPartitionedCall/StatefulPartitionedCall/blocks_26/StatefulPartitionedCall/depthwise_conv2d/depthwise_bn_offset", "op": "Const", "attr": {"value": {"tensor": {"dtype": "DT_FLOAT", "tensorShape": {"dim": [{"size": "1536"}]}}}, "dtype": {"type": "DT_FLOAT"}}}, {"name": "StatefulPartitionedCall/sequential_1/keras_layer/StatefulPartitionedCall/StatefulPartitionedCall/StatefulPartitionedCall/blocks_38/StatefulPartitionedCall/depthwise_conv2d/depthwise_weights", "op": "Const", "attr": {"dtype": {"type": "DT_FLOAT"}, "value": {"tensor": {"dtype": "DT_FLOAT", "tensorShape": {"dim": [{"size": "3"}, {"size": "3"}, {"size": "1536"}, {"size": "1"}]}}}}}, {"name": "StatefulPartitionedCall/sequential_1/keras_layer/StatefulPartitionedCall/StatefulPartitionedCall/StatefulPartitionedCall/blocks_26/StatefulPartitionedCall/conv2d_1/Conv2D_weights", "op": "Const", "attr": {"value": {"tensor": {"dtype": "DT_FLOAT", "tensorShape": {"dim": [{"size": "1"}, {"size": "1"}, {"size": "1536"}, {"size": "256"}]}}}, "dtype": {"type": "DT_FLOAT"}}}, {"name": "StatefulPartitionedCall/sequential_1/keras_layer/StatefulPartitionedCall/StatefulPartitionedCall/StatefulPartitionedCall/blocks_38/StatefulPartitionedCall/depthwise_conv2d/depthwise_bn_offset", "op": "Const", "attr": {"value": {"tensor": {"dtype": "DT_FLOAT", "tensorShape": {"dim": [{"size": "1536"}]}}}, "dtype": {"type": "DT_FLOAT"}}}, {"name": "StatefulPartitionedCall/sequential_1/keras_layer/StatefulPartitionedCall/StatefulPartitionedCall/StatefulPartitionedCall/blocks_26/StatefulPartitionedCall/conv2d_1/Conv2D_bn_offset", "op": "Const", "attr": {"dtype": {"type": "DT_FLOAT"}, "value": {"tensor": {"dtype": "DT_FLOAT", "tensorShape": {"dim": [{"size": "256"}]}}}}}, {"name": "StatefulPartitionedCall/sequential_1/keras_layer/StatefulPartitionedCall/StatefulPartitionedCall/StatefulPartitionedCall/blocks_27/StatefulPartitionedCall/conv2d/Conv2D_weights", "op": "Const", "attr": {"value": {"tensor": {"dtype": "DT_FLOAT", "tensorShape": {"dim": [{"size": "1"}, {"size": "1"}, {"size": "256"}, {"size": "1536"}]}}}, "dtype": {"type": "DT_FLOAT"}}}, {"name": "StatefulPartitionedCall/sequential_1/keras_layer/StatefulPartitionedCall/StatefulPartitionedCall/StatefulPartitionedCall/blocks_27/StatefulPartitionedCall/conv2d/Conv2D_bn_offset", "op": "Const", "attr": {"dtype": {"type": "DT_FLOAT"}, "value": {"tensor": {"dtype": "DT_FLOAT", "tensorShape": {"dim": [{"size": "1536"}]}}}}}, {"name": "StatefulPartitionedCall/sequential_1/keras_layer/StatefulPartitionedCall/StatefulPartitionedCall/StatefulPartitionedCall/blocks_27/StatefulPartitionedCall/depthwise_conv2d/depthwise_weights", "op": "Const", "attr": {"value": {"tensor": {"dtype": "DT_FLOAT", "tensorShape": {"dim": [{"size": "3"}, {"size": "3"}, {"size": "1536"}, {"size": "1"}]}}}, "dtype": {"type": "DT_FLOAT"}}}, {"name": "StatefulPartitionedCall/sequential_1/keras_layer/StatefulPartitionedCall/StatefulPartitionedCall/StatefulPartitionedCall/blocks_27/StatefulPartitionedCall/depthwise_conv2d/depthwise_bn_offset", "op": "Const", "attr": {"dtype": {"type": "DT_FLOAT"}, "value": {"tensor": {"dtype": "DT_FLOAT", "tensorShape": {"dim": [{"size": "1536"}]}}}}}, {"name": "StatefulPartitionedCall/sequential_1/keras_layer/StatefulPartitionedCall/StatefulPartitionedCall/StatefulPartitionedCall/blocks_27/StatefulPartitionedCall/conv2d_1/Conv2D_weights", "op": "Const", "attr": {"value": {"tensor": {"dtype": "DT_FLOAT", "tensorShape": {"dim": [{"size": "1"}, {"size": "1"}, {"size": "1536"}, {"size": "256"}]}}}, "dtype": {"type": "DT_FLOAT"}}}, {"name": "StatefulPartitionedCall/sequential_1/keras_layer/StatefulPartitionedCall/StatefulPartitionedCall/StatefulPartitionedCall/blocks_27/StatefulPartitionedCall/conv2d_1/Conv2D_bn_offset", "op": "Const", "attr": {"dtype": {"type": "DT_FLOAT"}, "value": {"tensor": {"dtype": "DT_FLOAT", "tensorShape": {"dim": [{"size": "256"}]}}}}}, {"name": "StatefulPartitionedCall/sequential_1/keras_layer/StatefulPartitionedCall/StatefulPartitionedCall/StatefulPartitionedCall/blocks_28/StatefulPartitionedCall/conv2d/Conv2D_weights", "op": "Const", "attr": {"dtype": {"type": "DT_FLOAT"}, "value": {"tensor": {"dtype": "DT_FLOAT", "tensorShape": {"dim": [{"size": "1"}, {"size": "1"}, {"size": "256"}, {"size": "1536"}]}}}}}, {"name": "StatefulPartitionedCall/sequential_1/keras_layer/StatefulPartitionedCall/StatefulPartitionedCall/StatefulPartitionedCall/head/StatefulPartitionedCall/conv2d/Conv2D_bn_offset", "op": "Const", "attr": {"value": {"tensor": {"dtype": "DT_FLOAT", "tensorShape": {"dim": [{"size": "1280"}]}}}, "dtype": {"type": "DT_FLOAT"}}}, {"name": "StatefulPartitionedCall/sequential_1/keras_layer/StatefulPartitionedCall/StatefulPartitionedCall/StatefulPartitionedCall/blocks_28/StatefulPartitionedCall/conv2d/Conv2D_bn_offset", "op": "Const", "attr": {"value": {"tensor": {"dtype": "DT_FLOAT", "tensorShape": {"dim": [{"size": "1536"}]}}}, "dtype": {"type": "DT_FLOAT"}}}, {"name": "StatefulPartitionedCall/sequential_1/keras_layer/StatefulPartitionedCall/StatefulPartitionedCall/StatefulPartitionedCall/blocks_28/StatefulPartitionedCall/depthwise_conv2d/depthwise_weights", "op": "Const", "attr": {"dtype": {"type": "DT_FLOAT"}, "value": {"tensor": {"dtype": "DT_FLOAT", "tensorShape": {"dim": [{"size": "3"}, {"size": "3"}, {"size": "1536"}, {"size": "1"}]}}}}}, {"name": "StatefulPartitionedCall/sequential_1/keras_layer/StatefulPartitionedCall/StatefulPartitionedCall/StatefulPartitionedCall/blocks_28/StatefulPartitionedCall/depthwise_conv2d/depthwise_bn_offset", "op": "Const", "attr": {"dtype": {"type": "DT_FLOAT"}, "value": {"tensor": {"dtype": "DT_FLOAT", "tensorShape": {"dim": [{"size": "1536"}]}}}}}, {"name": "StatefulPartitionedCall/sequential_1/keras_layer/StatefulPartitionedCall/StatefulPartitionedCall/StatefulPartitionedCall/blocks_28/StatefulPartitionedCall/conv2d_1/Conv2D_weights", "op": "Const", "attr": {"value": {"tensor": {"dtype": "DT_FLOAT", "tensorShape": {"dim": [{"size": "1"}, {"size": "1"}, {"size": "1536"}, {"size": "256"}]}}}, "dtype": {"type": "DT_FLOAT"}}}, {"name": "StatefulPartitionedCall/sequential_1/keras_layer/StatefulPartitionedCall/StatefulPartitionedCall/StatefulPartitionedCall/blocks_28/StatefulPartitionedCall/conv2d_1/Conv2D_bn_offset", "op": "Const", "attr": {"value": {"tensor": {"dtype": "DT_FLOAT", "tensorShape": {"dim": [{"size": "256"}]}}}, "dtype": {"type": "DT_FLOAT"}}}, {"name": "StatefulPartitionedCall/sequential_1/keras_layer/StatefulPartitionedCall/StatefulPartitionedCall/StatefulPartitionedCall/blocks_29/StatefulPartitionedCall/conv2d/Conv2D_weights", "op": "Const", "attr": {"dtype": {"type": "DT_FLOAT"}, "value": {"tensor": {"dtype": "DT_FLOAT", "tensorShape": {"dim": [{"size": "1"}, {"size": "1"}, {"size": "256"}, {"size": "1536"}]}}}}}, {"name": "StatefulPartitionedCall/sequential_1/keras_layer/StatefulPartitionedCall/StatefulPartitionedCall/StatefulPartitionedCall/blocks_29/StatefulPartitionedCall/conv2d/Conv2D_bn_offset", "op": "Const", "attr": {"value": {"tensor": {"dtype": "DT_FLOAT", "tensorShape": {"dim": [{"size": "1536"}]}}}, "dtype": {"type": "DT_FLOAT"}}}, {"name": "StatefulPartitionedCall/sequential_1/keras_layer/StatefulPartitionedCall/StatefulPartitionedCall/StatefulPartitionedCall/blocks_29/StatefulPartitionedCall/depthwise_conv2d/depthwise_weights", "op": "Const", "attr": {"dtype": {"type": "DT_FLOAT"}, "value": {"tensor": {"dtype": "DT_FLOAT", "tensorShape": {"dim": [{"size": "3"}, {"size": "3"}, {"size": "1536"}, {"size": "1"}]}}}}}, {"name": "StatefulPartitionedCall/sequential_1/keras_layer/StatefulPartitionedCall/StatefulPartitionedCall/StatefulPartitionedCall/blocks_29/StatefulPartitionedCall/depthwise_conv2d/depthwise_bn_offset", "op": "Const", "attr": {"value": {"tensor": {"dtype": "DT_FLOAT", "tensorShape": {"dim": [{"size": "1536"}]}}}, "dtype": {"type": "DT_FLOAT"}}}, {"name": "StatefulPartitionedCall/sequential_1/keras_layer/StatefulPartitionedCall/StatefulPartitionedCall/StatefulPartitionedCall/blocks_29/StatefulPartitionedCall/conv2d_1/Conv2D_weights", "op": "Const", "attr": {"dtype": {"type": "DT_FLOAT"}, "value": {"tensor": {"dtype": "DT_FLOAT", "tensorShape": {"dim": [{"size": "1"}, {"size": "1"}, {"size": "1536"}, {"size": "256"}]}}}}}, {"name": "StatefulPartitionedCall/sequential_1/keras_layer/StatefulPartitionedCall/StatefulPartitionedCall/StatefulPartitionedCall/blocks_29/StatefulPartitionedCall/conv2d_1/Conv2D_bn_offset", "op": "Const", "attr": {"dtype": {"type": "DT_FLOAT"}, "value": {"tensor": {"dtype": "DT_FLOAT", "tensorShape": {"dim": [{"size": "256"}]}}}}}, {"name": "StatefulPartitionedCall/sequential_1/keras_layer/StatefulPartitionedCall/StatefulPartitionedCall/StatefulPartitionedCall/blocks_30/StatefulPartitionedCall/conv2d/Conv2D_weights", "op": "Const", "attr": {"value": {"tensor": {"dtype": "DT_FLOAT", "tensorShape": {"dim": [{"size": "1"}, {"size": "1"}, {"size": "256"}, {"size": "1536"}]}}}, "dtype": {"type": "DT_FLOAT"}}}, {"name": "StatefulPartitionedCall/sequential_1/keras_layer/StatefulPartitionedCall/StatefulPartitionedCall/StatefulPartitionedCall/blocks_38/StatefulPartitionedCall/conv2d_1/Conv2D_weights", "op": "Const", "attr": {"value": {"tensor": {"dtype": "DT_FLOAT", "tensorShape": {"dim": [{"size": "1"}, {"size": "1"}, {"size": "1536"}, {"size": "256"}]}}}, "dtype": {"type": "DT_FLOAT"}}}, {"name": "StatefulPartitionedCall/sequential_1/keras_layer/StatefulPartitionedCall/StatefulPartitionedCall/StatefulPartitionedCall/blocks_30/StatefulPartitionedCall/conv2d/Conv2D_bn_offset", "op": "Const", "attr": {"value": {"tensor": {"dtype": "DT_FLOAT", "tensorShape": {"dim": [{"size": "1536"}]}}}, "dtype": {"type": "DT_FLOAT"}}}, {"name": "StatefulPartitionedCall/sequential_1/keras_layer/StatefulPartitionedCall/StatefulPartitionedCall/StatefulPartitionedCall/blocks_30/StatefulPartitionedCall/depthwise_conv2d/depthwise_weights", "op": "Const", "attr": {"value": {"tensor": {"dtype": "DT_FLOAT", "tensorShape": {"dim": [{"size": "3"}, {"size": "3"}, {"size": "1536"}, {"size": "1"}]}}}, "dtype": {"type": "DT_FLOAT"}}}, {"name": "StatefulPartitionedCall/sequential_1/keras_layer/StatefulPartitionedCall/StatefulPartitionedCall/StatefulPartitionedCall/blocks_30/StatefulPartitionedCall/depthwise_conv2d/depthwise_bn_offset", "op": "Const", "attr": {"value": {"tensor": {"dtype": "DT_FLOAT", "tensorShape": {"dim": [{"size": "1536"}]}}}, "dtype": {"type": "DT_FLOAT"}}}, {"name": "StatefulPartitionedCall/sequential_1/keras_layer/StatefulPartitionedCall/StatefulPartitionedCall/StatefulPartitionedCall/blocks_38/StatefulPartitionedCall/conv2d_1/Conv2D_bn_offset", "op": "Const", "attr": {"dtype": {"type": "DT_FLOAT"}, "value": {"tensor": {"dtype": "DT_FLOAT", "tensorShape": {"dim": [{"size": "256"}]}}}}}, {"name": "StatefulPartitionedCall/sequential_1/keras_layer/StatefulPartitionedCall/StatefulPartitionedCall/StatefulPartitionedCall/blocks_30/StatefulPartitionedCall/conv2d_1/Conv2D_weights", "op": "Const", "attr": {"dtype": {"type": "DT_FLOAT"}, "value": {"tensor": {"dtype": "DT_FLOAT", "tensorShape": {"dim": [{"size": "1"}, {"size": "1"}, {"size": "1536"}, {"size": "256"}]}}}}}, {"name": "StatefulPartitionedCall/sequential_1/keras_layer/StatefulPartitionedCall/StatefulPartitionedCall/StatefulPartitionedCall/blocks_30/StatefulPartitionedCall/conv2d_1/Conv2D_bn_offset", "op": "Const", "attr": {"value": {"tensor": {"dtype": "DT_FLOAT", "tensorShape": {"dim": [{"size": "256"}]}}}, "dtype": {"type": "DT_FLOAT"}}}, {"name": "StatefulPartitionedCall/sequential_1/keras_layer/StatefulPartitionedCall/StatefulPartitionedCall/StatefulPartitionedCall/blocks_31/StatefulPartitionedCall/conv2d/Conv2D_weights", "op": "Const", "attr": {"dtype": {"type": "DT_FLOAT"}, "value": {"tensor": {"dtype": "DT_FLOAT", "tensorShape": {"dim": [{"size": "1"}, {"size": "1"}, {"size": "256"}, {"size": "1536"}]}}}}}, {"name": "StatefulPartitionedCall/sequential_1/keras_layer/StatefulPartitionedCall/StatefulPartitionedCall/StatefulPartitionedCall/blocks_31/StatefulPartitionedCall/conv2d/Conv2D_bn_offset", "op": "Const", "attr": {"value": {"tensor": {"dtype": "DT_FLOAT", "tensorShape": {"dim": [{"size": "1536"}]}}}, "dtype": {"type": "DT_FLOAT"}}}, {"name": "StatefulPartitionedCall/sequential_1/keras_layer/StatefulPartitionedCall/StatefulPartitionedCall/StatefulPartitionedCall/blocks_31/StatefulPartitionedCall/depthwise_conv2d/depthwise_weights", "op": "Const", "attr": {"value": {"tensor": {"dtype": "DT_FLOAT", "tensorShape": {"dim": [{"size": "3"}, {"size": "3"}, {"size": "1536"}, {"size": "1"}]}}}, "dtype": {"type": "DT_FLOAT"}}}, {"name": "StatefulPartitionedCall/sequential_1/keras_layer/StatefulPartitionedCall/StatefulPartitionedCall/StatefulPartitionedCall/blocks_31/StatefulPartitionedCall/depthwise_conv2d/depthwise_bn_offset", "op": "Const", "attr": {"value": {"tensor": {"dtype": "DT_FLOAT", "tensorShape": {"dim": [{"size": "1536"}]}}}, "dtype": {"type": "DT_FLOAT"}}}, {"name": "StatefulPartitionedCall/sequential_1/keras_layer/StatefulPartitionedCall/StatefulPartitionedCall/StatefulPartitionedCall/blocks_39/StatefulPartitionedCall/conv2d/Conv2D_weights", "op": "Const", "attr": {"dtype": {"type": "DT_FLOAT"}, "value": {"tensor": {"dtype": "DT_FLOAT", "tensorShape": {"dim": [{"size": "1"}, {"size": "1"}, {"size": "256"}, {"size": "1536"}]}}}}}, {"name": "StatefulPartitionedCall/sequential_1/keras_layer/StatefulPartitionedCall/StatefulPartitionedCall/StatefulPartitionedCall/blocks_31/StatefulPartitionedCall/conv2d_1/Conv2D_weights", "op": "Const", "attr": {"value": {"tensor": {"dtype": "DT_FLOAT", "tensorShape": {"dim": [{"size": "1"}, {"size": "1"}, {"size": "1536"}, {"size": "256"}]}}}, "dtype": {"type": "DT_FLOAT"}}}, {"name": "StatefulPartitionedCall/sequential_1/keras_layer/StatefulPartitionedCall/StatefulPartitionedCall/StatefulPartitionedCall/blocks_39/StatefulPartitionedCall/conv2d/Conv2D_bn_offset", "op": "Const", "attr": {"value": {"tensor": {"dtype": "DT_FLOAT", "tensorShape": {"dim": [{"size": "1536"}]}}}, "dtype": {"type": "DT_FLOAT"}}}, {"name": "StatefulPartitionedCall/sequential_1/keras_layer/StatefulPartitionedCall/StatefulPartitionedCall/StatefulPartitionedCall/blocks_31/StatefulPartitionedCall/conv2d_1/Conv2D_bn_offset", "op": "Const", "attr": {"dtype": {"type": "DT_FLOAT"}, "value": {"tensor": {"dtype": "DT_FLOAT", "tensorShape": {"dim": [{"size": "256"}]}}}}}, {"name": "StatefulPartitionedCall/sequential_1/keras_layer/StatefulPartitionedCall/StatefulPartitionedCall/StatefulPartitionedCall/blocks_32/StatefulPartitionedCall/conv2d/Conv2D_weights", "op": "Const", "attr": {"dtype": {"type": "DT_FLOAT"}, "value": {"tensor": {"dtype": "DT_FLOAT", "tensorShape": {"dim": [{"size": "1"}, {"size": "1"}, {"size": "256"}, {"size": "1536"}]}}}}}, {"name": "StatefulPartitionedCall/sequential_1/keras_layer/StatefulPartitionedCall/StatefulPartitionedCall/StatefulPartitionedCall/blocks_32/StatefulPartitionedCall/conv2d/Conv2D_bn_offset", "op": "Const", "attr": {"value": {"tensor": {"dtype": "DT_FLOAT", "tensorShape": {"dim": [{"size": "1536"}]}}}, "dtype": {"type": "DT_FLOAT"}}}, {"name": "StatefulPartitionedCall/sequential_1/keras_layer/StatefulPartitionedCall/StatefulPartitionedCall/StatefulPartitionedCall/blocks_32/StatefulPartitionedCall/depthwise_conv2d/depthwise_weights", "op": "Const", "attr": {"dtype": {"type": "DT_FLOAT"}, "value": {"tensor": {"dtype": "DT_FLOAT", "tensorShape": {"dim": [{"size": "3"}, {"size": "3"}, {"size": "1536"}, {"size": "1"}]}}}}}, {"name": "StatefulPartitionedCall/sequential_1/keras_layer/StatefulPartitionedCall/StatefulPartitionedCall/StatefulPartitionedCall/blocks_32/StatefulPartitionedCall/depthwise_conv2d/depthwise_bn_offset", "op": "Const", "attr": {"dtype": {"type": "DT_FLOAT"}, "value": {"tensor": {"dtype": "DT_FLOAT", "tensorShape": {"dim": [{"size": "1536"}]}}}}}, {"name": "StatefulPartitionedCall/sequential_1/keras_layer/StatefulPartitionedCall/StatefulPartitionedCall/StatefulPartitionedCall/blocks_32/StatefulPartitionedCall/conv2d_1/Conv2D_weights", "op": "Const", "attr": {"dtype": {"type": "DT_FLOAT"}, "value": {"tensor": {"dtype": "DT_FLOAT", "tensorShape": {"dim": [{"size": "1"}, {"size": "1"}, {"size": "1536"}, {"size": "256"}]}}}}}, {"name": "StatefulPartitionedCall/sequential_1/keras_layer/StatefulPartitionedCall/StatefulPartitionedCall/StatefulPartitionedCall/blocks_39/StatefulPartitionedCall/depthwise_conv2d/depthwise_weights", "op": "Const", "attr": {"dtype": {"type": "DT_FLOAT"}, "value": {"tensor": {"dtype": "DT_FLOAT", "tensorShape": {"dim": [{"size": "3"}, {"size": "3"}, {"size": "1536"}, {"size": "1"}]}}}}}, {"name": "StatefulPartitionedCall/sequential_1/keras_layer/StatefulPartitionedCall/StatefulPartitionedCall/StatefulPartitionedCall/blocks_32/StatefulPartitionedCall/conv2d_1/Conv2D_bn_offset", "op": "Const", "attr": {"value": {"tensor": {"dtype": "DT_FLOAT", "tensorShape": {"dim": [{"size": "256"}]}}}, "dtype": {"type": "DT_FLOAT"}}}, {"name": "StatefulPartitionedCall/sequential_1/keras_layer/StatefulPartitionedCall/StatefulPartitionedCall/StatefulPartitionedCall/blocks_33/StatefulPartitionedCall/conv2d/Conv2D_weights", "op": "Const", "attr": {"dtype": {"type": "DT_FLOAT"}, "value": {"tensor": {"dtype": "DT_FLOAT", "tensorShape": {"dim": [{"size": "1"}, {"size": "1"}, {"size": "256"}, {"size": "1536"}]}}}}}, {"name": "StatefulPartitionedCall/sequential_1/keras_layer/StatefulPartitionedCall/StatefulPartitionedCall/StatefulPartitionedCall/blocks_33/StatefulPartitionedCall/conv2d/Conv2D_bn_offset", "op": "Const", "attr": {"value": {"tensor": {"dtype": "DT_FLOAT", "tensorShape": {"dim": [{"size": "1536"}]}}}, "dtype": {"type": "DT_FLOAT"}}}, {"name": "StatefulPartitionedCall/sequential_1/keras_layer/StatefulPartitionedCall/StatefulPartitionedCall/StatefulPartitionedCall/blocks_33/StatefulPartitionedCall/depthwise_conv2d/depthwise_weights", "op": "Const", "attr": {"dtype": {"type": "DT_FLOAT"}, "value": {"tensor": {"dtype": "DT_FLOAT", "tensorShape": {"dim": [{"size": "3"}, {"size": "3"}, {"size": "1536"}, {"size": "1"}]}}}}}, {"name": "StatefulPartitionedCall/sequential_1/keras_layer/StatefulPartitionedCall/StatefulPartitionedCall/StatefulPartitionedCall/blocks_33/StatefulPartitionedCall/depthwise_conv2d/depthwise_bn_offset", "op": "Const", "attr": {"dtype": {"type": "DT_FLOAT"}, "value": {"tensor": {"dtype": "DT_FLOAT", "tensorShape": {"dim": [{"size": "1536"}]}}}}}, {"name": "StatefulPartitionedCall/sequential_1/keras_layer/StatefulPartitionedCall/StatefulPartitionedCall/StatefulPartitionedCall/blocks_39/StatefulPartitionedCall/depthwise_conv2d/depthwise_bn_offset", "op": "Const", "attr": {"value": {"tensor": {"dtype": "DT_FLOAT", "tensorShape": {"dim": [{"size": "1536"}]}}}, "dtype": {"type": "DT_FLOAT"}}}, {"name": "StatefulPartitionedCall/sequential_1/keras_layer/StatefulPartitionedCall/StatefulPartitionedCall/StatefulPartitionedCall/blocks_33/StatefulPartitionedCall/conv2d_1/Conv2D_weights", "op": "Const", "attr": {"dtype": {"type": "DT_FLOAT"}, "value": {"tensor": {"dtype": "DT_FLOAT", "tensorShape": {"dim": [{"size": "1"}, {"size": "1"}, {"size": "1536"}, {"size": "256"}]}}}}}, {"name": "StatefulPartitionedCall/sequential_1/keras_layer/StatefulPartitionedCall/StatefulPartitionedCall/StatefulPartitionedCall/blocks_33/StatefulPartitionedCall/conv2d_1/Conv2D_bn_offset", "op": "Const", "attr": {"dtype": {"type": "DT_FLOAT"}, "value": {"tensor": {"dtype": "DT_FLOAT", "tensorShape": {"dim": [{"size": "256"}]}}}}}, {"name": "StatefulPartitionedCall/sequential_1/keras_layer/StatefulPartitionedCall/StatefulPartitionedCall/StatefulPartitionedCall/blocks_34/StatefulPartitionedCall/conv2d/Conv2D_weights", "op": "Const", "attr": {"dtype": {"type": "DT_FLOAT"}, "value": {"tensor": {"dtype": "DT_FLOAT", "tensorShape": {"dim": [{"size": "1"}, {"size": "1"}, {"size": "256"}, {"size": "1536"}]}}}}}, {"name": "StatefulPartitionedCall/sequential_1/keras_layer/StatefulPartitionedCall/StatefulPartitionedCall/StatefulPartitionedCall/blocks_34/StatefulPartitionedCall/conv2d/Conv2D_bn_offset", "op": "Const", "attr": {"dtype": {"type": "DT_FLOAT"}, "value": {"tensor": {"dtype": "DT_FLOAT", "tensorShape": {"dim": [{"size": "1536"}]}}}}}, {"name": "StatefulPartitionedCall/sequential_1/keras_layer/StatefulPartitionedCall/StatefulPartitionedCall/StatefulPartitionedCall/blocks_34/StatefulPartitionedCall/depthwise_conv2d/depthwise_weights", "op": "Const", "attr": {"value": {"tensor": {"dtype": "DT_FLOAT", "tensorShape": {"dim": [{"size": "3"}, {"size": "3"}, {"size": "1536"}, {"size": "1"}]}}}, "dtype": {"type": "DT_FLOAT"}}}, {"name": "StatefulPartitionedCall/sequential_1/keras_layer/StatefulPartitionedCall/StatefulPartitionedCall/StatefulPartitionedCall/blocks_34/StatefulPartitionedCall/depthwise_conv2d/depthwise_bn_offset", "op": "Const", "attr": {"dtype": {"type": "DT_FLOAT"}, "value": {"tensor": {"dtype": "DT_FLOAT", "tensorShape": {"dim": [{"size": "1536"}]}}}}}, {"name": "StatefulPartitionedCall/sequential_1/keras_layer/StatefulPartitionedCall/StatefulPartitionedCall/StatefulPartitionedCall/blocks_34/StatefulPartitionedCall/conv2d_1/Conv2D_weights", "op": "Const", "attr": {"dtype": {"type": "DT_FLOAT"}, "value": {"tensor": {"dtype": "DT_FLOAT", "tensorShape": {"dim": [{"size": "1"}, {"size": "1"}, {"size": "1536"}, {"size": "256"}]}}}}}, {"name": "StatefulPartitionedCall/sequential_1/keras_layer/StatefulPartitionedCall/StatefulPartitionedCall/StatefulPartitionedCall/blocks_34/StatefulPartitionedCall/conv2d_1/Conv2D_bn_offset", "op": "Const", "attr": {"dtype": {"type": "DT_FLOAT"}, "value": {"tensor": {"dtype": "DT_FLOAT", "tensorShape": {"dim": [{"size": "256"}]}}}}}, {"name": "StatefulPartitionedCall/sequential_1/keras_layer/StatefulPartitionedCall/StatefulPartitionedCall/StatefulPartitionedCall/blocks_39/StatefulPartitionedCall/se/Mean/reduction_indices", "op": "Const", "input": ["^input_1"], "attr": {"dtype": {"type": "DT_INT32"}, "value": {"tensor": {"dtype": "DT_INT32", "tensorShape": {"dim": [{"size": "2"}]}}}}}, {"name": "StatefulPartitionedCall/sequential_1/keras_layer/StatefulPartitionedCall/StatefulPartitionedCall/StatefulPartitionedCall/blocks_39/StatefulPartitionedCall/se/conv2d/Conv2D/ReadVariableOp", "op": "Const", "input": ["^input_1"], "attr": {"value": {"tensor": {"dtype": "DT_FLOAT", "tensorShape": {"dim": [{"size": "1"}, {"size": "1"}, {"size": "1536"}, {"size": "64"}]}}}, "dtype": {"type": "DT_FLOAT"}}}, {"name": "StatefulPartitionedCall/sequential_1/keras_layer/StatefulPartitionedCall/StatefulPartitionedCall/StatefulPartitionedCall/blocks_39/StatefulPartitionedCall/se/conv2d/BiasAdd/ReadVariableOp", "op": "Const", "input": ["^input_1"], "attr": {"value": {"tensor": {"dtype": "DT_FLOAT", "tensorShape": {"dim": [{"size": "64"}]}}}, "dtype": {"type": "DT_FLOAT"}}}, {"name": "StatefulPartitionedCall/sequential_1/keras_layer/StatefulPartitionedCall/StatefulPartitionedCall/StatefulPartitionedCall/blocks_39/StatefulPartitionedCall/se/conv2d_1/Conv2D/ReadVariableOp", "op": "Const", "input": ["^input_1"], "attr": {"value": {"tensor": {"dtype": "DT_FLOAT", "tensorShape": {"dim": [{"size": "1"}, {"size": "1"}, {"size": "64"}, {"size": "1536"}]}}}, "dtype": {"type": "DT_FLOAT"}}}, {"name": "StatefulPartitionedCall/sequential_1/keras_layer/StatefulPartitionedCall/StatefulPartitionedCall/StatefulPartitionedCall/blocks_39/StatefulPartitionedCall/se/conv2d_1/BiasAdd/ReadVariableOp", "op": "Const", "input": ["^input_1"], "attr": {"value": {"tensor": {"dtype": "DT_FLOAT", "tensorShape": {"dim": [{"size": "1536"}]}}}, "dtype": {"type": "DT_FLOAT"}}}, {"name": "StatefulPartitionedCall/sequential_1/keras_layer/StatefulPartitionedCall/StatefulPartitionedCall/StatefulPartitionedCall/blocks_38/StatefulPartitionedCall/se/Mean/reduction_indices", "op": "Const", "input": ["^input_1"], "attr": {"dtype": {"type": "DT_INT32"}, "value": {"tensor": {"dtype": "DT_INT32", "tensorShape": {"dim": [{"size": "2"}]}}}}}, {"name": "StatefulPartitionedCall/sequential_1/keras_layer/StatefulPartitionedCall/StatefulPartitionedCall/StatefulPartitionedCall/blocks_38/StatefulPartitionedCall/se/conv2d/Conv2D/ReadVariableOp", "op": "Const", "input": ["^input_1"], "attr": {"value": {"tensor": {"dtype": "DT_FLOAT", "tensorShape": {"dim": [{"size": "1"}, {"size": "1"}, {"size": "1536"}, {"size": "64"}]}}}, "dtype": {"type": "DT_FLOAT"}}}, {"name": "StatefulPartitionedCall/sequential_1/keras_layer/StatefulPartitionedCall/StatefulPartitionedCall/StatefulPartitionedCall/blocks_38/StatefulPartitionedCall/se/conv2d/BiasAdd/ReadVariableOp", "op": "Const", "input": ["^input_1"], "attr": {"value": {"tensor": {"dtype": "DT_FLOAT", "tensorShape": {"dim": [{"size": "64"}]}}}, "dtype": {"type": "DT_FLOAT"}}}, {"name": "StatefulPartitionedCall/sequential_1/keras_layer/StatefulPartitionedCall/StatefulPartitionedCall/StatefulPartitionedCall/blocks_38/StatefulPartitionedCall/se/conv2d_1/Conv2D/ReadVariableOp", "op": "Const", "input": ["^input_1"], "attr": {"dtype": {"type": "DT_FLOAT"}, "value": {"tensor": {"dtype": "DT_FLOAT", "tensorShape": {"dim": [{"size": "1"}, {"size": "1"}, {"size": "64"}, {"size": "1536"}]}}}}}, {"name": "StatefulPartitionedCall/sequential_1/keras_layer/StatefulPartitionedCall/StatefulPartitionedCall/StatefulPartitionedCall/blocks_38/StatefulPartitionedCall/se/conv2d_1/BiasAdd/ReadVariableOp", "op": "Const", "input": ["^input_1"], "attr": {"dtype": {"type": "DT_FLOAT"}, "value": {"tensor": {"dtype": "DT_FLOAT", "tensorShape": {"dim": [{"size": "1536"}]}}}}}, {"name": "StatefulPartitionedCall/sequential_1/keras_layer/StatefulPartitionedCall/StatefulPartitionedCall/StatefulPartitionedCall/blocks_37/StatefulPartitionedCall/se/Mean/reduction_indices", "op": "Const", "input": ["^input_1"], "attr": {"value": {"tensor": {"dtype": "DT_INT32", "tensorShape": {"dim": [{"size": "2"}]}}}, "dtype": {"type": "DT_INT32"}}}, {"name": "StatefulPartitionedCall/sequential_1/keras_layer/StatefulPartitionedCall/StatefulPartitionedCall/StatefulPartitionedCall/blocks_37/StatefulPartitionedCall/se/conv2d/Conv2D/ReadVariableOp", "op": "Const", "input": ["^input_1"], "attr": {"dtype": {"type": "DT_FLOAT"}, "value": {"tensor": {"dtype": "DT_FLOAT", "tensorShape": {"dim": [{"size": "1"}, {"size": "1"}, {"size": "1536"}, {"size": "64"}]}}}}}, {"name": "StatefulPartitionedCall/sequential_1/keras_layer/StatefulPartitionedCall/StatefulPartitionedCall/StatefulPartitionedCall/blocks_37/StatefulPartitionedCall/se/conv2d/BiasAdd/ReadVariableOp", "op": "Const", "input": ["^input_1"], "attr": {"dtype": {"type": "DT_FLOAT"}, "value": {"tensor": {"dtype": "DT_FLOAT", "tensorShape": {"dim": [{"size": "64"}]}}}}}, {"name": "StatefulPartitionedCall/sequential_1/keras_layer/StatefulPartitionedCall/StatefulPartitionedCall/StatefulPartitionedCall/blocks_37/StatefulPartitionedCall/se/conv2d_1/Conv2D/ReadVariableOp", "op": "Const", "input": ["^input_1"], "attr": {"dtype": {"type": "DT_FLOAT"}, "value": {"tensor": {"dtype": "DT_FLOAT", "tensorShape": {"dim": [{"size": "1"}, {"size": "1"}, {"size": "64"}, {"size": "1536"}]}}}}}, {"name": "StatefulPartitionedCall/sequential_1/keras_layer/StatefulPartitionedCall/StatefulPartitionedCall/StatefulPartitionedCall/blocks_37/StatefulPartitionedCall/se/conv2d_1/BiasAdd/ReadVariableOp", "op": "Const", "input": ["^input_1"], "attr": {"dtype": {"type": "DT_FLOAT"}, "value": {"tensor": {"dtype": "DT_FLOAT", "tensorShape": {"dim": [{"size": "1536"}]}}}}}, {"name": "StatefulPartitionedCall/sequential_1/keras_layer/StatefulPartitionedCall/StatefulPartitionedCall/StatefulPartitionedCall/blocks_36/StatefulPartitionedCall/se/Mean/reduction_indices", "op": "Const", "input": ["^input_1"], "attr": {"value": {"tensor": {"dtype": "DT_INT32", "tensorShape": {"dim": [{"size": "2"}]}}}, "dtype": {"type": "DT_INT32"}}}, {"name": "StatefulPartitionedCall/sequential_1/keras_layer/StatefulPartitionedCall/StatefulPartitionedCall/StatefulPartitionedCall/blocks_36/StatefulPartitionedCall/se/conv2d/Conv2D/ReadVariableOp", "op": "Const", "input": ["^input_1"], "attr": {"value": {"tensor": {"dtype": "DT_FLOAT", "tensorShape": {"dim": [{"size": "1"}, {"size": "1"}, {"size": "1536"}, {"size": "64"}]}}}, "dtype": {"type": "DT_FLOAT"}}}, {"name": "StatefulPartitionedCall/sequential_1/keras_layer/StatefulPartitionedCall/StatefulPartitionedCall/StatefulPartitionedCall/blocks_36/StatefulPartitionedCall/se/conv2d/BiasAdd/ReadVariableOp", "op": "Const", "input": ["^input_1"], "attr": {"value": {"tensor": {"dtype": "DT_FLOAT", "tensorShape": {"dim": [{"size": "64"}]}}}, "dtype": {"type": "DT_FLOAT"}}}, {"name": "StatefulPartitionedCall/sequential_1/keras_layer/StatefulPartitionedCall/StatefulPartitionedCall/StatefulPartitionedCall/blocks_36/StatefulPartitionedCall/se/conv2d_1/Conv2D/ReadVariableOp", "op": "Const", "input": ["^input_1"], "attr": {"value": {"tensor": {"dtype": "DT_FLOAT", "tensorShape": {"dim": [{"size": "1"}, {"size": "1"}, {"size": "64"}, {"size": "1536"}]}}}, "dtype": {"type": "DT_FLOAT"}}}, {"name": "StatefulPartitionedCall/sequential_1/keras_layer/StatefulPartitionedCall/StatefulPartitionedCall/StatefulPartitionedCall/blocks_36/StatefulPartitionedCall/se/conv2d_1/BiasAdd/ReadVariableOp", "op": "Const", "input": ["^input_1"], "attr": {"dtype": {"type": "DT_FLOAT"}, "value": {"tensor": {"dtype": "DT_FLOAT", "tensorShape": {"dim": [{"size": "1536"}]}}}}}, {"name": "StatefulPartitionedCall/sequential_1/keras_layer/StatefulPartitionedCall/StatefulPartitionedCall/StatefulPartitionedCall/blocks_35/StatefulPartitionedCall/se/Mean/reduction_indices", "op": "Const", "input": ["^input_1"], "attr": {"dtype": {"type": "DT_INT32"}, "value": {"tensor": {"dtype": "DT_INT32", "tensorShape": {"dim": [{"size": "2"}]}}}}}, {"name": "StatefulPartitionedCall/sequential_1/keras_layer/StatefulPartitionedCall/StatefulPartitionedCall/StatefulPartitionedCall/blocks_35/StatefulPartitionedCall/se/conv2d/Conv2D/ReadVariableOp", "op": "Const", "input": ["^input_1"], "attr": {"dtype": {"type": "DT_FLOAT"}, "value": {"tensor": {"dtype": "DT_FLOAT", "tensorShape": {"dim": [{"size": "1"}, {"size": "1"}, {"size": "1536"}, {"size": "64"}]}}}}}, {"name": "StatefulPartitionedCall/sequential_1/keras_layer/StatefulPartitionedCall/StatefulPartitionedCall/StatefulPartitionedCall/blocks_35/StatefulPartitionedCall/se/conv2d/BiasAdd/ReadVariableOp", "op": "Const", "input": ["^input_1"], "attr": {"dtype": {"type": "DT_FLOAT"}, "value": {"tensor": {"dtype": "DT_FLOAT", "tensorShape": {"dim": [{"size": "64"}]}}}}}, {"name": "StatefulPartitionedCall/sequential_1/keras_layer/StatefulPartitionedCall/StatefulPartitionedCall/StatefulPartitionedCall/blocks_35/StatefulPartitionedCall/se/conv2d_1/Conv2D/ReadVariableOp", "op": "Const", "input": ["^input_1"], "attr": {"dtype": {"type": "DT_FLOAT"}, "value": {"tensor": {"dtype": "DT_FLOAT", "tensorShape": {"dim": [{"size": "1"}, {"size": "1"}, {"size": "64"}, {"size": "1536"}]}}}}}, {"name": "StatefulPartitionedCall/sequential_1/keras_layer/StatefulPartitionedCall/StatefulPartitionedCall/StatefulPartitionedCall/blocks_35/StatefulPartitionedCall/se/conv2d_1/BiasAdd/ReadVariableOp", "op": "Const", "input": ["^input_1"], "attr": {"value": {"tensor": {"dtype": "DT_FLOAT", "tensorShape": {"dim": [{"size": "1536"}]}}}, "dtype": {"type": "DT_FLOAT"}}}, {"name": "StatefulPartitionedCall/sequential_1/keras_layer/StatefulPartitionedCall/StatefulPartitionedCall/StatefulPartitionedCall/blocks_34/StatefulPartitionedCall/se/Mean/reduction_indices", "op": "Const", "input": ["^input_1"], "attr": {"value": {"tensor": {"dtype": "DT_INT32", "tensorShape": {"dim": [{"size": "2"}]}}}, "dtype": {"type": "DT_INT32"}}}, {"name": "StatefulPartitionedCall/sequential_1/keras_layer/StatefulPartitionedCall/StatefulPartitionedCall/StatefulPartitionedCall/blocks_34/StatefulPartitionedCall/se/conv2d/Conv2D/ReadVariableOp", "op": "Const", "input": ["^input_1"], "attr": {"dtype": {"type": "DT_FLOAT"}, "value": {"tensor": {"dtype": "DT_FLOAT", "tensorShape": {"dim": [{"size": "1"}, {"size": "1"}, {"size": "1536"}, {"size": "64"}]}}}}}, {"name": "StatefulPartitionedCall/sequential_1/keras_layer/StatefulPartitionedCall/StatefulPartitionedCall/StatefulPartitionedCall/blocks_34/StatefulPartitionedCall/se/conv2d/BiasAdd/ReadVariableOp", "op": "Const", "input": ["^input_1"], "attr": {"dtype": {"type": "DT_FLOAT"}, "value": {"tensor": {"dtype": "DT_FLOAT", "tensorShape": {"dim": [{"size": "64"}]}}}}}, {"name": "StatefulPartitionedCall/sequential_1/keras_layer/StatefulPartitionedCall/StatefulPartitionedCall/StatefulPartitionedCall/blocks_34/StatefulPartitionedCall/se/conv2d_1/Conv2D/ReadVariableOp", "op": "Const", "input": ["^input_1"], "attr": {"dtype": {"type": "DT_FLOAT"}, "value": {"tensor": {"dtype": "DT_FLOAT", "tensorShape": {"dim": [{"size": "1"}, {"size": "1"}, {"size": "64"}, {"size": "1536"}]}}}}}, {"name": "StatefulPartitionedCall/sequential_1/keras_layer/StatefulPartitionedCall/StatefulPartitionedCall/StatefulPartitionedCall/blocks_34/StatefulPartitionedCall/se/conv2d_1/BiasAdd/ReadVariableOp", "op": "Const", "input": ["^input_1"], "attr": {"dtype": {"type": "DT_FLOAT"}, "value": {"tensor": {"dtype": "DT_FLOAT", "tensorShape": {"dim": [{"size": "1536"}]}}}}}, {"name": "StatefulPartitionedCall/sequential_1/keras_layer/StatefulPartitionedCall/StatefulPartitionedCall/StatefulPartitionedCall/blocks_33/StatefulPartitionedCall/se/Mean/reduction_indices", "op": "Const", "input": ["^input_1"], "attr": {"dtype": {"type": "DT_INT32"}, "value": {"tensor": {"dtype": "DT_INT32", "tensorShape": {"dim": [{"size": "2"}]}}}}}, {"name": "StatefulPartitionedCall/sequential_1/keras_layer/StatefulPartitionedCall/StatefulPartitionedCall/StatefulPartitionedCall/blocks_33/StatefulPartitionedCall/se/conv2d/Conv2D/ReadVariableOp", "op": "Const", "input": ["^input_1"], "attr": {"dtype": {"type": "DT_FLOAT"}, "value": {"tensor": {"dtype": "DT_FLOAT", "tensorShape": {"dim": [{"size": "1"}, {"size": "1"}, {"size": "1536"}, {"size": "64"}]}}}}}, {"name": "StatefulPartitionedCall/sequential_1/keras_layer/StatefulPartitionedCall/StatefulPartitionedCall/StatefulPartitionedCall/blocks_33/StatefulPartitionedCall/se/conv2d/BiasAdd/ReadVariableOp", "op": "Const", "input": ["^input_1"], "attr": {"dtype": {"type": "DT_FLOAT"}, "value": {"tensor": {"dtype": "DT_FLOAT", "tensorShape": {"dim": [{"size": "64"}]}}}}}, {"name": "StatefulPartitionedCall/sequential_1/keras_layer/StatefulPartitionedCall/StatefulPartitionedCall/StatefulPartitionedCall/blocks_33/StatefulPartitionedCall/se/conv2d_1/Conv2D/ReadVariableOp", "op": "Const", "input": ["^input_1"], "attr": {"dtype": {"type": "DT_FLOAT"}, "value": {"tensor": {"dtype": "DT_FLOAT", "tensorShape": {"dim": [{"size": "1"}, {"size": "1"}, {"size": "64"}, {"size": "1536"}]}}}}}, {"name": "StatefulPartitionedCall/sequential_1/keras_layer/StatefulPartitionedCall/StatefulPartitionedCall/StatefulPartitionedCall/blocks_33/StatefulPartitionedCall/se/conv2d_1/BiasAdd/ReadVariableOp", "op": "Const", "input": ["^input_1"], "attr": {"dtype": {"type": "DT_FLOAT"}, "value": {"tensor": {"dtype": "DT_FLOAT", "tensorShape": {"dim": [{"size": "1536"}]}}}}}, {"name": "StatefulPartitionedCall/sequential_1/keras_layer/StatefulPartitionedCall/StatefulPartitionedCall/StatefulPartitionedCall/blocks_32/StatefulPartitionedCall/se/Mean/reduction_indices", "op": "Const", "input": ["^input_1"], "attr": {"value": {"tensor": {"dtype": "DT_INT32", "tensorShape": {"dim": [{"size": "2"}]}}}, "dtype": {"type": "DT_INT32"}}}, {"name": "StatefulPartitionedCall/sequential_1/keras_layer/StatefulPartitionedCall/StatefulPartitionedCall/StatefulPartitionedCall/blocks_32/StatefulPartitionedCall/se/conv2d/Conv2D/ReadVariableOp", "op": "Const", "input": ["^input_1"], "attr": {"value": {"tensor": {"dtype": "DT_FLOAT", "tensorShape": {"dim": [{"size": "1"}, {"size": "1"}, {"size": "1536"}, {"size": "64"}]}}}, "dtype": {"type": "DT_FLOAT"}}}, {"name": "StatefulPartitionedCall/sequential_1/keras_layer/StatefulPartitionedCall/StatefulPartitionedCall/StatefulPartitionedCall/blocks_32/StatefulPartitionedCall/se/conv2d/BiasAdd/ReadVariableOp", "op": "Const", "input": ["^input_1"], "attr": {"dtype": {"type": "DT_FLOAT"}, "value": {"tensor": {"dtype": "DT_FLOAT", "tensorShape": {"dim": [{"size": "64"}]}}}}}, {"name": "StatefulPartitionedCall/sequential_1/keras_layer/StatefulPartitionedCall/StatefulPartitionedCall/StatefulPartitionedCall/blocks_32/StatefulPartitionedCall/se/conv2d_1/Conv2D/ReadVariableOp", "op": "Const", "input": ["^input_1"], "attr": {"value": {"tensor": {"dtype": "DT_FLOAT", "tensorShape": {"dim": [{"size": "1"}, {"size": "1"}, {"size": "64"}, {"size": "1536"}]}}}, "dtype": {"type": "DT_FLOAT"}}}, {"name": "StatefulPartitionedCall/sequential_1/keras_layer/StatefulPartitionedCall/StatefulPartitionedCall/StatefulPartitionedCall/blocks_32/StatefulPartitionedCall/se/conv2d_1/BiasAdd/ReadVariableOp", "op": "Const", "input": ["^input_1"], "attr": {"value": {"tensor": {"dtype": "DT_FLOAT", "tensorShape": {"dim": [{"size": "1536"}]}}}, "dtype": {"type": "DT_FLOAT"}}}, {"name": "StatefulPartitionedCall/sequential_1/keras_layer/StatefulPartitionedCall/StatefulPartitionedCall/StatefulPartitionedCall/blocks_31/StatefulPartitionedCall/se/Mean/reduction_indices", "op": "Const", "input": ["^input_1"], "attr": {"dtype": {"type": "DT_INT32"}, "value": {"tensor": {"dtype": "DT_INT32", "tensorShape": {"dim": [{"size": "2"}]}}}}}, {"name": "StatefulPartitionedCall/sequential_1/keras_layer/StatefulPartitionedCall/StatefulPartitionedCall/StatefulPartitionedCall/blocks_31/StatefulPartitionedCall/se/conv2d/Conv2D/ReadVariableOp", "op": "Const", "input": ["^input_1"], "attr": {"dtype": {"type": "DT_FLOAT"}, "value": {"tensor": {"dtype": "DT_FLOAT", "tensorShape": {"dim": [{"size": "1"}, {"size": "1"}, {"size": "1536"}, {"size": "64"}]}}}}}, {"name": "StatefulPartitionedCall/sequential_1/keras_layer/StatefulPartitionedCall/StatefulPartitionedCall/StatefulPartitionedCall/blocks_31/StatefulPartitionedCall/se/conv2d/BiasAdd/ReadVariableOp", "op": "Const", "input": ["^input_1"], "attr": {"value": {"tensor": {"dtype": "DT_FLOAT", "tensorShape": {"dim": [{"size": "64"}]}}}, "dtype": {"type": "DT_FLOAT"}}}, {"name": "StatefulPartitionedCall/sequential_1/keras_layer/StatefulPartitionedCall/StatefulPartitionedCall/StatefulPartitionedCall/blocks_31/StatefulPartitionedCall/se/conv2d_1/Conv2D/ReadVariableOp", "op": "Const", "input": ["^input_1"], "attr": {"dtype": {"type": "DT_FLOAT"}, "value": {"tensor": {"dtype": "DT_FLOAT", "tensorShape": {"dim": [{"size": "1"}, {"size": "1"}, {"size": "64"}, {"size": "1536"}]}}}}}, {"name": "StatefulPartitionedCall/sequential_1/keras_layer/StatefulPartitionedCall/StatefulPartitionedCall/StatefulPartitionedCall/blocks_31/StatefulPartitionedCall/se/conv2d_1/BiasAdd/ReadVariableOp", "op": "Const", "input": ["^input_1"], "attr": {"value": {"tensor": {"dtype": "DT_FLOAT", "tensorShape": {"dim": [{"size": "1536"}]}}}, "dtype": {"type": "DT_FLOAT"}}}, {"name": "StatefulPartitionedCall/sequential_1/keras_layer/StatefulPartitionedCall/StatefulPartitionedCall/StatefulPartitionedCall/blocks_30/StatefulPartitionedCall/se/Mean/reduction_indices", "op": "Const", "input": ["^input_1"], "attr": {"value": {"tensor": {"dtype": "DT_INT32", "tensorShape": {"dim": [{"size": "2"}]}}}, "dtype": {"type": "DT_INT32"}}}, {"name": "StatefulPartitionedCall/sequential_1/keras_layer/StatefulPartitionedCall/StatefulPartitionedCall/StatefulPartitionedCall/blocks_30/StatefulPartitionedCall/se/conv2d/Conv2D/ReadVariableOp", "op": "Const", "input": ["^input_1"], "attr": {"value": {"tensor": {"dtype": "DT_FLOAT", "tensorShape": {"dim": [{"size": "1"}, {"size": "1"}, {"size": "1536"}, {"size": "64"}]}}}, "dtype": {"type": "DT_FLOAT"}}}, {"name": "StatefulPartitionedCall/sequential_1/keras_layer/StatefulPartitionedCall/StatefulPartitionedCall/StatefulPartitionedCall/blocks_30/StatefulPartitionedCall/se/conv2d/BiasAdd/ReadVariableOp", "op": "Const", "input": ["^input_1"], "attr": {"value": {"tensor": {"dtype": "DT_FLOAT", "tensorShape": {"dim": [{"size": "64"}]}}}, "dtype": {"type": "DT_FLOAT"}}}, {"name": "StatefulPartitionedCall/sequential_1/keras_layer/StatefulPartitionedCall/StatefulPartitionedCall/StatefulPartitionedCall/blocks_30/StatefulPartitionedCall/se/conv2d_1/Conv2D/ReadVariableOp", "op": "Const", "input": ["^input_1"], "attr": {"dtype": {"type": "DT_FLOAT"}, "value": {"tensor": {"dtype": "DT_FLOAT", "tensorShape": {"dim": [{"size": "1"}, {"size": "1"}, {"size": "64"}, {"size": "1536"}]}}}}}, {"name": "StatefulPartitionedCall/sequential_1/keras_layer/StatefulPartitionedCall/StatefulPartitionedCall/StatefulPartitionedCall/blocks_30/StatefulPartitionedCall/se/conv2d_1/BiasAdd/ReadVariableOp", "op": "Const", "input": ["^input_1"], "attr": {"value": {"tensor": {"dtype": "DT_FLOAT", "tensorShape": {"dim": [{"size": "1536"}]}}}, "dtype": {"type": "DT_FLOAT"}}}, {"name": "StatefulPartitionedCall/sequential_1/keras_layer/StatefulPartitionedCall/StatefulPartitionedCall/StatefulPartitionedCall/blocks_29/StatefulPartitionedCall/se/Mean/reduction_indices", "op": "Const", "input": ["^input_1"], "attr": {"dtype": {"type": "DT_INT32"}, "value": {"tensor": {"dtype": "DT_INT32", "tensorShape": {"dim": [{"size": "2"}]}}}}}, {"name": "StatefulPartitionedCall/sequential_1/keras_layer/StatefulPartitionedCall/StatefulPartitionedCall/StatefulPartitionedCall/blocks_29/StatefulPartitionedCall/se/conv2d/Conv2D/ReadVariableOp", "op": "Const", "input": ["^input_1"], "attr": {"dtype": {"type": "DT_FLOAT"}, "value": {"tensor": {"dtype": "DT_FLOAT", "tensorShape": {"dim": [{"size": "1"}, {"size": "1"}, {"size": "1536"}, {"size": "64"}]}}}}}, {"name": "StatefulPartitionedCall/sequential_1/keras_layer/StatefulPartitionedCall/StatefulPartitionedCall/StatefulPartitionedCall/blocks_29/StatefulPartitionedCall/se/conv2d/BiasAdd/ReadVariableOp", "op": "Const", "input": ["^input_1"], "attr": {"value": {"tensor": {"dtype": "DT_FLOAT", "tensorShape": {"dim": [{"size": "64"}]}}}, "dtype": {"type": "DT_FLOAT"}}}, {"name": "StatefulPartitionedCall/sequential_1/keras_layer/StatefulPartitionedCall/StatefulPartitionedCall/StatefulPartitionedCall/blocks_29/StatefulPartitionedCall/se/conv2d_1/Conv2D/ReadVariableOp", "op": "Const", "input": ["^input_1"], "attr": {"dtype": {"type": "DT_FLOAT"}, "value": {"tensor": {"dtype": "DT_FLOAT", "tensorShape": {"dim": [{"size": "1"}, {"size": "1"}, {"size": "64"}, {"size": "1536"}]}}}}}, {"name": "StatefulPartitionedCall/sequential_1/keras_layer/StatefulPartitionedCall/StatefulPartitionedCall/StatefulPartitionedCall/blocks_29/StatefulPartitionedCall/se/conv2d_1/BiasAdd/ReadVariableOp", "op": "Const", "input": ["^input_1"], "attr": {"dtype": {"type": "DT_FLOAT"}, "value": {"tensor": {"dtype": "DT_FLOAT", "tensorShape": {"dim": [{"size": "1536"}]}}}}}, {"name": "StatefulPartitionedCall/sequential_1/keras_layer/StatefulPartitionedCall/StatefulPartitionedCall/StatefulPartitionedCall/blocks_28/StatefulPartitionedCall/se/Mean/reduction_indices", "op": "Const", "input": ["^input_1"], "attr": {"dtype": {"type": "DT_INT32"}, "value": {"tensor": {"dtype": "DT_INT32", "tensorShape": {"dim": [{"size": "2"}]}}}}}, {"name": "StatefulPartitionedCall/sequential_1/keras_layer/StatefulPartitionedCall/StatefulPartitionedCall/StatefulPartitionedCall/blocks_28/StatefulPartitionedCall/se/conv2d/Conv2D/ReadVariableOp", "op": "Const", "input": ["^input_1"], "attr": {"value": {"tensor": {"dtype": "DT_FLOAT", "tensorShape": {"dim": [{"size": "1"}, {"size": "1"}, {"size": "1536"}, {"size": "64"}]}}}, "dtype": {"type": "DT_FLOAT"}}}, {"name": "StatefulPartitionedCall/sequential_1/keras_layer/StatefulPartitionedCall/StatefulPartitionedCall/StatefulPartitionedCall/blocks_28/StatefulPartitionedCall/se/conv2d/BiasAdd/ReadVariableOp", "op": "Const", "input": ["^input_1"], "attr": {"dtype": {"type": "DT_FLOAT"}, "value": {"tensor": {"dtype": "DT_FLOAT", "tensorShape": {"dim": [{"size": "64"}]}}}}}, {"name": "StatefulPartitionedCall/sequential_1/keras_layer/StatefulPartitionedCall/StatefulPartitionedCall/StatefulPartitionedCall/blocks_28/StatefulPartitionedCall/se/conv2d_1/Conv2D/ReadVariableOp", "op": "Const", "input": ["^input_1"], "attr": {"value": {"tensor": {"dtype": "DT_FLOAT", "tensorShape": {"dim": [{"size": "1"}, {"size": "1"}, {"size": "64"}, {"size": "1536"}]}}}, "dtype": {"type": "DT_FLOAT"}}}, {"name": "StatefulPartitionedCall/sequential_1/keras_layer/StatefulPartitionedCall/StatefulPartitionedCall/StatefulPartitionedCall/blocks_28/StatefulPartitionedCall/se/conv2d_1/BiasAdd/ReadVariableOp", "op": "Const", "input": ["^input_1"], "attr": {"dtype": {"type": "DT_FLOAT"}, "value": {"tensor": {"dtype": "DT_FLOAT", "tensorShape": {"dim": [{"size": "1536"}]}}}}}, {"name": "StatefulPartitionedCall/sequential_1/keras_layer/StatefulPartitionedCall/StatefulPartitionedCall/StatefulPartitionedCall/blocks_27/StatefulPartitionedCall/se/Mean/reduction_indices", "op": "Const", "input": ["^input_1"], "attr": {"dtype": {"type": "DT_INT32"}, "value": {"tensor": {"dtype": "DT_INT32", "tensorShape": {"dim": [{"size": "2"}]}}}}}, {"name": "StatefulPartitionedCall/sequential_1/keras_layer/StatefulPartitionedCall/StatefulPartitionedCall/StatefulPartitionedCall/blocks_27/StatefulPartitionedCall/se/conv2d/Conv2D/ReadVariableOp", "op": "Const", "input": ["^input_1"], "attr": {"dtype": {"type": "DT_FLOAT"}, "value": {"tensor": {"dtype": "DT_FLOAT", "tensorShape": {"dim": [{"size": "1"}, {"size": "1"}, {"size": "1536"}, {"size": "64"}]}}}}}, {"name": "StatefulPartitionedCall/sequential_1/keras_layer/StatefulPartitionedCall/StatefulPartitionedCall/StatefulPartitionedCall/blocks_27/StatefulPartitionedCall/se/conv2d/BiasAdd/ReadVariableOp", "op": "Const", "input": ["^input_1"], "attr": {"dtype": {"type": "DT_FLOAT"}, "value": {"tensor": {"dtype": "DT_FLOAT", "tensorShape": {"dim": [{"size": "64"}]}}}}}, {"name": "StatefulPartitionedCall/sequential_1/keras_layer/StatefulPartitionedCall/StatefulPartitionedCall/StatefulPartitionedCall/blocks_27/StatefulPartitionedCall/se/conv2d_1/Conv2D/ReadVariableOp", "op": "Const", "input": ["^input_1"], "attr": {"dtype": {"type": "DT_FLOAT"}, "value": {"tensor": {"dtype": "DT_FLOAT", "tensorShape": {"dim": [{"size": "1"}, {"size": "1"}, {"size": "64"}, {"size": "1536"}]}}}}}, {"name": "StatefulPartitionedCall/sequential_1/keras_layer/StatefulPartitionedCall/StatefulPartitionedCall/StatefulPartitionedCall/blocks_27/StatefulPartitionedCall/se/conv2d_1/BiasAdd/ReadVariableOp", "op": "Const", "input": ["^input_1"], "attr": {"dtype": {"type": "DT_FLOAT"}, "value": {"tensor": {"dtype": "DT_FLOAT", "tensorShape": {"dim": [{"size": "1536"}]}}}}}, {"name": "StatefulPartitionedCall/sequential_1/keras_layer/StatefulPartitionedCall/StatefulPartitionedCall/StatefulPartitionedCall/blocks_26/StatefulPartitionedCall/se/Mean/reduction_indices", "op": "Const", "input": ["^input_1"], "attr": {"value": {"tensor": {"dtype": "DT_INT32", "tensorShape": {"dim": [{"size": "2"}]}}}, "dtype": {"type": "DT_INT32"}}}, {"name": "StatefulPartitionedCall/sequential_1/keras_layer/StatefulPartitionedCall/StatefulPartitionedCall/StatefulPartitionedCall/blocks_26/StatefulPartitionedCall/se/conv2d/Conv2D/ReadVariableOp", "op": "Const", "input": ["^input_1"], "attr": {"dtype": {"type": "DT_FLOAT"}, "value": {"tensor": {"dtype": "DT_FLOAT", "tensorShape": {"dim": [{"size": "1"}, {"size": "1"}, {"size": "1536"}, {"size": "64"}]}}}}}, {"name": "StatefulPartitionedCall/sequential_1/keras_layer/StatefulPartitionedCall/StatefulPartitionedCall/StatefulPartitionedCall/blocks_26/StatefulPartitionedCall/se/conv2d/BiasAdd/ReadVariableOp", "op": "Const", "input": ["^input_1"], "attr": {"value": {"tensor": {"dtype": "DT_FLOAT", "tensorShape": {"dim": [{"size": "64"}]}}}, "dtype": {"type": "DT_FLOAT"}}}, {"name": "StatefulPartitionedCall/sequential_1/keras_layer/StatefulPartitionedCall/StatefulPartitionedCall/StatefulPartitionedCall/blocks_26/StatefulPartitionedCall/se/conv2d_1/Conv2D/ReadVariableOp", "op": "Const", "input": ["^input_1"], "attr": {"value": {"tensor": {"dtype": "DT_FLOAT", "tensorShape": {"dim": [{"size": "1"}, {"size": "1"}, {"size": "64"}, {"size": "1536"}]}}}, "dtype": {"type": "DT_FLOAT"}}}, {"name": "StatefulPartitionedCall/sequential_1/keras_layer/StatefulPartitionedCall/StatefulPartitionedCall/StatefulPartitionedCall/blocks_26/StatefulPartitionedCall/se/conv2d_1/BiasAdd/ReadVariableOp", "op": "Const", "input": ["^input_1"], "attr": {"value": {"tensor": {"dtype": "DT_FLOAT", "tensorShape": {"dim": [{"size": "1536"}]}}}, "dtype": {"type": "DT_FLOAT"}}}, {"name": "StatefulPartitionedCall/sequential_1/keras_layer/StatefulPartitionedCall/StatefulPartitionedCall/StatefulPartitionedCall/blocks_25/StatefulPartitionedCall/se/Mean/reduction_indices", "op": "Const", "input": ["^input_1"], "attr": {"value": {"tensor": {"dtype": "DT_INT32", "tensorShape": {"dim": [{"size": "2"}]}}}, "dtype": {"type": "DT_INT32"}}}, {"name": "StatefulPartitionedCall/sequential_1/keras_layer/StatefulPartitionedCall/StatefulPartitionedCall/StatefulPartitionedCall/blocks_25/StatefulPartitionedCall/se/conv2d/Conv2D/ReadVariableOp", "op": "Const", "input": ["^input_1"], "attr": {"dtype": {"type": "DT_FLOAT"}, "value": {"tensor": {"dtype": "DT_FLOAT", "tensorShape": {"dim": [{"size": "1"}, {"size": "1"}, {"size": "960"}, {"size": "40"}]}}}}}, {"name": "StatefulPartitionedCall/sequential_1/keras_layer/StatefulPartitionedCall/StatefulPartitionedCall/StatefulPartitionedCall/blocks_25/StatefulPartitionedCall/se/conv2d/BiasAdd/ReadVariableOp", "op": "Const", "input": ["^input_1"], "attr": {"dtype": {"type": "DT_FLOAT"}, "value": {"tensor": {"dtype": "DT_FLOAT", "tensorShape": {"dim": [{"size": "40"}]}}}}}, {"name": "StatefulPartitionedCall/sequential_1/keras_layer/StatefulPartitionedCall/StatefulPartitionedCall/StatefulPartitionedCall/blocks_25/StatefulPartitionedCall/se/conv2d_1/Conv2D/ReadVariableOp", "op": "Const", "input": ["^input_1"], "attr": {"value": {"tensor": {"dtype": "DT_FLOAT", "tensorShape": {"dim": [{"size": "1"}, {"size": "1"}, {"size": "40"}, {"size": "960"}]}}}, "dtype": {"type": "DT_FLOAT"}}}, {"name": "StatefulPartitionedCall/sequential_1/keras_layer/StatefulPartitionedCall/StatefulPartitionedCall/StatefulPartitionedCall/blocks_25/StatefulPartitionedCall/se/conv2d_1/BiasAdd/ReadVariableOp", "op": "Const", "input": ["^input_1"], "attr": {"dtype": {"type": "DT_FLOAT"}, "value": {"tensor": {"dtype": "DT_FLOAT", "tensorShape": {"dim": [{"size": "960"}]}}}}}, {"name": "StatefulPartitionedCall/sequential_1/keras_layer/StatefulPartitionedCall/StatefulPartitionedCall/StatefulPartitionedCall/blocks_24/StatefulPartitionedCall/se/Mean/reduction_indices", "op": "Const", "input": ["^input_1"], "attr": {"value": {"tensor": {"dtype": "DT_INT32", "tensorShape": {"dim": [{"size": "2"}]}}}, "dtype": {"type": "DT_INT32"}}}, {"name": "StatefulPartitionedCall/sequential_1/keras_layer/StatefulPartitionedCall/StatefulPartitionedCall/StatefulPartitionedCall/blocks_24/StatefulPartitionedCall/se/conv2d/Conv2D/ReadVariableOp", "op": "Const", "input": ["^input_1"], "attr": {"dtype": {"type": "DT_FLOAT"}, "value": {"tensor": {"dtype": "DT_FLOAT", "tensorShape": {"dim": [{"size": "1"}, {"size": "1"}, {"size": "960"}, {"size": "40"}]}}}}}, {"name": "StatefulPartitionedCall/sequential_1/keras_layer/StatefulPartitionedCall/StatefulPartitionedCall/StatefulPartitionedCall/blocks_24/StatefulPartitionedCall/se/conv2d/BiasAdd/ReadVariableOp", "op": "Const", "input": ["^input_1"], "attr": {"value": {"tensor": {"dtype": "DT_FLOAT", "tensorShape": {"dim": [{"size": "40"}]}}}, "dtype": {"type": "DT_FLOAT"}}}, {"name": "StatefulPartitionedCall/sequential_1/keras_layer/StatefulPartitionedCall/StatefulPartitionedCall/StatefulPartitionedCall/blocks_24/StatefulPartitionedCall/se/conv2d_1/Conv2D/ReadVariableOp", "op": "Const", "input": ["^input_1"], "attr": {"value": {"tensor": {"dtype": "DT_FLOAT", "tensorShape": {"dim": [{"size": "1"}, {"size": "1"}, {"size": "40"}, {"size": "960"}]}}}, "dtype": {"type": "DT_FLOAT"}}}, {"name": "StatefulPartitionedCall/sequential_1/keras_layer/StatefulPartitionedCall/StatefulPartitionedCall/StatefulPartitionedCall/blocks_24/StatefulPartitionedCall/se/conv2d_1/BiasAdd/ReadVariableOp", "op": "Const", "input": ["^input_1"], "attr": {"value": {"tensor": {"dtype": "DT_FLOAT", "tensorShape": {"dim": [{"size": "960"}]}}}, "dtype": {"type": "DT_FLOAT"}}}, {"name": "StatefulPartitionedCall/sequential_1/keras_layer/StatefulPartitionedCall/StatefulPartitionedCall/StatefulPartitionedCall/blocks_23/StatefulPartitionedCall/se/Mean/reduction_indices", "op": "Const", "input": ["^input_1"], "attr": {"value": {"tensor": {"dtype": "DT_INT32", "tensorShape": {"dim": [{"size": "2"}]}}}, "dtype": {"type": "DT_INT32"}}}, {"name": "StatefulPartitionedCall/sequential_1/keras_layer/StatefulPartitionedCall/StatefulPartitionedCall/StatefulPartitionedCall/blocks_23/StatefulPartitionedCall/se/conv2d/Conv2D/ReadVariableOp", "op": "Const", "input": ["^input_1"], "attr": {"value": {"tensor": {"dtype": "DT_FLOAT", "tensorShape": {"dim": [{"size": "1"}, {"size": "1"}, {"size": "960"}, {"size": "40"}]}}}, "dtype": {"type": "DT_FLOAT"}}}, {"name": "StatefulPartitionedCall/sequential_1/keras_layer/StatefulPartitionedCall/StatefulPartitionedCall/StatefulPartitionedCall/blocks_23/StatefulPartitionedCall/se/conv2d/BiasAdd/ReadVariableOp", "op": "Const", "input": ["^input_1"], "attr": {"value": {"tensor": {"dtype": "DT_FLOAT", "tensorShape": {"dim": [{"size": "40"}]}}}, "dtype": {"type": "DT_FLOAT"}}}, {"name": "StatefulPartitionedCall/sequential_1/keras_layer/StatefulPartitionedCall/StatefulPartitionedCall/StatefulPartitionedCall/blocks_23/StatefulPartitionedCall/se/conv2d_1/Conv2D/ReadVariableOp", "op": "Const", "input": ["^input_1"], "attr": {"value": {"tensor": {"dtype": "DT_FLOAT", "tensorShape": {"dim": [{"size": "1"}, {"size": "1"}, {"size": "40"}, {"size": "960"}]}}}, "dtype": {"type": "DT_FLOAT"}}}, {"name": "StatefulPartitionedCall/sequential_1/keras_layer/StatefulPartitionedCall/StatefulPartitionedCall/StatefulPartitionedCall/blocks_23/StatefulPartitionedCall/se/conv2d_1/BiasAdd/ReadVariableOp", "op": "Const", "input": ["^input_1"], "attr": {"dtype": {"type": "DT_FLOAT"}, "value": {"tensor": {"dtype": "DT_FLOAT", "tensorShape": {"dim": [{"size": "960"}]}}}}}, {"name": "StatefulPartitionedCall/sequential_1/keras_layer/StatefulPartitionedCall/StatefulPartitionedCall/StatefulPartitionedCall/blocks_22/StatefulPartitionedCall/se/Mean/reduction_indices", "op": "Const", "input": ["^input_1"], "attr": {"value": {"tensor": {"dtype": "DT_INT32", "tensorShape": {"dim": [{"size": "2"}]}}}, "dtype": {"type": "DT_INT32"}}}, {"name": "StatefulPartitionedCall/sequential_1/keras_layer/StatefulPartitionedCall/StatefulPartitionedCall/StatefulPartitionedCall/blocks_22/StatefulPartitionedCall/se/conv2d/Conv2D/ReadVariableOp", "op": "Const", "input": ["^input_1"], "attr": {"dtype": {"type": "DT_FLOAT"}, "value": {"tensor": {"dtype": "DT_FLOAT", "tensorShape": {"dim": [{"size": "1"}, {"size": "1"}, {"size": "960"}, {"size": "40"}]}}}}}, {"name": "StatefulPartitionedCall/sequential_1/keras_layer/StatefulPartitionedCall/StatefulPartitionedCall/StatefulPartitionedCall/blocks_22/StatefulPartitionedCall/se/conv2d/BiasAdd/ReadVariableOp", "op": "Const", "input": ["^input_1"], "attr": {"value": {"tensor": {"dtype": "DT_FLOAT", "tensorShape": {"dim": [{"size": "40"}]}}}, "dtype": {"type": "DT_FLOAT"}}}, {"name": "StatefulPartitionedCall/sequential_1/keras_layer/StatefulPartitionedCall/StatefulPartitionedCall/StatefulPartitionedCall/blocks_22/StatefulPartitionedCall/se/conv2d_1/Conv2D/ReadVariableOp", "op": "Const", "input": ["^input_1"], "attr": {"dtype": {"type": "DT_FLOAT"}, "value": {"tensor": {"dtype": "DT_FLOAT", "tensorShape": {"dim": [{"size": "1"}, {"size": "1"}, {"size": "40"}, {"size": "960"}]}}}}}, {"name": "StatefulPartitionedCall/sequential_1/keras_layer/StatefulPartitionedCall/StatefulPartitionedCall/StatefulPartitionedCall/blocks_22/StatefulPartitionedCall/se/conv2d_1/BiasAdd/ReadVariableOp", "op": "Const", "input": ["^input_1"], "attr": {"dtype": {"type": "DT_FLOAT"}, "value": {"tensor": {"dtype": "DT_FLOAT", "tensorShape": {"dim": [{"size": "960"}]}}}}}, {"name": "StatefulPartitionedCall/sequential_1/keras_layer/StatefulPartitionedCall/StatefulPartitionedCall/StatefulPartitionedCall/blocks_21/StatefulPartitionedCall/se/Mean/reduction_indices", "op": "Const", "input": ["^input_1"], "attr": {"value": {"tensor": {"dtype": "DT_INT32", "tensorShape": {"dim": [{"size": "2"}]}}}, "dtype": {"type": "DT_INT32"}}}, {"name": "StatefulPartitionedCall/sequential_1/keras_layer/StatefulPartitionedCall/StatefulPartitionedCall/StatefulPartitionedCall/blocks_21/StatefulPartitionedCall/se/conv2d/Conv2D/ReadVariableOp", "op": "Const", "input": ["^input_1"], "attr": {"dtype": {"type": "DT_FLOAT"}, "value": {"tensor": {"dtype": "DT_FLOAT", "tensorShape": {"dim": [{"size": "1"}, {"size": "1"}, {"size": "960"}, {"size": "40"}]}}}}}, {"name": "StatefulPartitionedCall/sequential_1/keras_layer/StatefulPartitionedCall/StatefulPartitionedCall/StatefulPartitionedCall/blocks_21/StatefulPartitionedCall/se/conv2d/BiasAdd/ReadVariableOp", "op": "Const", "input": ["^input_1"], "attr": {"dtype": {"type": "DT_FLOAT"}, "value": {"tensor": {"dtype": "DT_FLOAT", "tensorShape": {"dim": [{"size": "40"}]}}}}}, {"name": "StatefulPartitionedCall/sequential_1/keras_layer/StatefulPartitionedCall/StatefulPartitionedCall/StatefulPartitionedCall/blocks_21/StatefulPartitionedCall/se/conv2d_1/Conv2D/ReadVariableOp", "op": "Const", "input": ["^input_1"], "attr": {"value": {"tensor": {"dtype": "DT_FLOAT", "tensorShape": {"dim": [{"size": "1"}, {"size": "1"}, {"size": "40"}, {"size": "960"}]}}}, "dtype": {"type": "DT_FLOAT"}}}, {"name": "StatefulPartitionedCall/sequential_1/keras_layer/StatefulPartitionedCall/StatefulPartitionedCall/StatefulPartitionedCall/blocks_21/StatefulPartitionedCall/se/conv2d_1/BiasAdd/ReadVariableOp", "op": "Const", "input": ["^input_1"], "attr": {"dtype": {"type": "DT_FLOAT"}, "value": {"tensor": {"dtype": "DT_FLOAT", "tensorShape": {"dim": [{"size": "960"}]}}}}}, {"name": "StatefulPartitionedCall/sequential_1/keras_layer/StatefulPartitionedCall/StatefulPartitionedCall/StatefulPartitionedCall/blocks_20/StatefulPartitionedCall/se/Mean/reduction_indices", "op": "Const", "input": ["^input_1"], "attr": {"value": {"tensor": {"dtype": "DT_INT32", "tensorShape": {"dim": [{"size": "2"}]}}}, "dtype": {"type": "DT_INT32"}}}, {"name": "StatefulPartitionedCall/sequential_1/keras_layer/StatefulPartitionedCall/StatefulPartitionedCall/StatefulPartitionedCall/blocks_20/StatefulPartitionedCall/se/conv2d/Conv2D/ReadVariableOp", "op": "Const", "input": ["^input_1"], "attr": {"dtype": {"type": "DT_FLOAT"}, "value": {"tensor": {"dtype": "DT_FLOAT", "tensorShape": {"dim": [{"size": "1"}, {"size": "1"}, {"size": "960"}, {"size": "40"}]}}}}}, {"name": "StatefulPartitionedCall/sequential_1/keras_layer/StatefulPartitionedCall/StatefulPartitionedCall/StatefulPartitionedCall/blocks_20/StatefulPartitionedCall/se/conv2d/BiasAdd/ReadVariableOp", "op": "Const", "input": ["^input_1"], "attr": {"value": {"tensor": {"dtype": "DT_FLOAT", "tensorShape": {"dim": [{"size": "40"}]}}}, "dtype": {"type": "DT_FLOAT"}}}, {"name": "StatefulPartitionedCall/sequential_1/keras_layer/StatefulPartitionedCall/StatefulPartitionedCall/StatefulPartitionedCall/blocks_20/StatefulPartitionedCall/se/conv2d_1/Conv2D/ReadVariableOp", "op": "Const", "input": ["^input_1"], "attr": {"dtype": {"type": "DT_FLOAT"}, "value": {"tensor": {"dtype": "DT_FLOAT", "tensorShape": {"dim": [{"size": "1"}, {"size": "1"}, {"size": "40"}, {"size": "960"}]}}}}}, {"name": "StatefulPartitionedCall/sequential_1/keras_layer/StatefulPartitionedCall/StatefulPartitionedCall/StatefulPartitionedCall/blocks_20/StatefulPartitionedCall/se/conv2d_1/BiasAdd/ReadVariableOp", "op": "Const", "input": ["^input_1"], "attr": {"value": {"tensor": {"dtype": "DT_FLOAT", "tensorShape": {"dim": [{"size": "960"}]}}}, "dtype": {"type": "DT_FLOAT"}}}, {"name": "StatefulPartitionedCall/sequential_1/keras_layer/StatefulPartitionedCall/StatefulPartitionedCall/StatefulPartitionedCall/blocks_19/StatefulPartitionedCall/se/Mean/reduction_indices", "op": "Const", "input": ["^input_1"], "attr": {"dtype": {"type": "DT_INT32"}, "value": {"tensor": {"dtype": "DT_INT32", "tensorShape": {"dim": [{"size": "2"}]}}}}}, {"name": "StatefulPartitionedCall/sequential_1/keras_layer/StatefulPartitionedCall/StatefulPartitionedCall/StatefulPartitionedCall/blocks_19/StatefulPartitionedCall/se/conv2d/Conv2D/ReadVariableOp", "op": "Const", "input": ["^input_1"], "attr": {"dtype": {"type": "DT_FLOAT"}, "value": {"tensor": {"dtype": "DT_FLOAT", "tensorShape": {"dim": [{"size": "1"}, {"size": "1"}, {"size": "960"}, {"size": "40"}]}}}}}, {"name": "StatefulPartitionedCall/sequential_1/keras_layer/StatefulPartitionedCall/StatefulPartitionedCall/StatefulPartitionedCall/blocks_19/StatefulPartitionedCall/se/conv2d/BiasAdd/ReadVariableOp", "op": "Const", "input": ["^input_1"], "attr": {"dtype": {"type": "DT_FLOAT"}, "value": {"tensor": {"dtype": "DT_FLOAT", "tensorShape": {"dim": [{"size": "40"}]}}}}}, {"name": "StatefulPartitionedCall/sequential_1/keras_layer/StatefulPartitionedCall/StatefulPartitionedCall/StatefulPartitionedCall/blocks_19/StatefulPartitionedCall/se/conv2d_1/Conv2D/ReadVariableOp", "op": "Const", "input": ["^input_1"], "attr": {"value": {"tensor": {"dtype": "DT_FLOAT", "tensorShape": {"dim": [{"size": "1"}, {"size": "1"}, {"size": "40"}, {"size": "960"}]}}}, "dtype": {"type": "DT_FLOAT"}}}, {"name": "StatefulPartitionedCall/sequential_1/keras_layer/StatefulPartitionedCall/StatefulPartitionedCall/StatefulPartitionedCall/blocks_19/StatefulPartitionedCall/se/conv2d_1/BiasAdd/ReadVariableOp", "op": "Const", "input": ["^input_1"], "attr": {"value": {"tensor": {"dtype": "DT_FLOAT", "tensorShape": {"dim": [{"size": "960"}]}}}, "dtype": {"type": "DT_FLOAT"}}}, {"name": "StatefulPartitionedCall/sequential_1/keras_layer/StatefulPartitionedCall/StatefulPartitionedCall/StatefulPartitionedCall/blocks_18/StatefulPartitionedCall/se/Mean/reduction_indices", "op": "Const", "input": ["^input_1"], "attr": {"dtype": {"type": "DT_INT32"}, "value": {"tensor": {"dtype": "DT_INT32", "tensorShape": {"dim": [{"size": "2"}]}}}}}, {"name": "StatefulPartitionedCall/sequential_1/keras_layer/StatefulPartitionedCall/StatefulPartitionedCall/StatefulPartitionedCall/blocks_18/StatefulPartitionedCall/se/conv2d/Conv2D/ReadVariableOp", "op": "Const", "input": ["^input_1"], "attr": {"dtype": {"type": "DT_FLOAT"}, "value": {"tensor": {"dtype": "DT_FLOAT", "tensorShape": {"dim": [{"size": "1"}, {"size": "1"}, {"size": "960"}, {"size": "40"}]}}}}}, {"name": "StatefulPartitionedCall/sequential_1/keras_layer/StatefulPartitionedCall/StatefulPartitionedCall/StatefulPartitionedCall/blocks_18/StatefulPartitionedCall/se/conv2d/BiasAdd/ReadVariableOp", "op": "Const", "input": ["^input_1"], "attr": {"value": {"tensor": {"dtype": "DT_FLOAT", "tensorShape": {"dim": [{"size": "40"}]}}}, "dtype": {"type": "DT_FLOAT"}}}, {"name": "StatefulPartitionedCall/sequential_1/keras_layer/StatefulPartitionedCall/StatefulPartitionedCall/StatefulPartitionedCall/blocks_18/StatefulPartitionedCall/se/conv2d_1/Conv2D/ReadVariableOp", "op": "Const", "input": ["^input_1"], "attr": {"value": {"tensor": {"dtype": "DT_FLOAT", "tensorShape": {"dim": [{"size": "1"}, {"size": "1"}, {"size": "40"}, {"size": "960"}]}}}, "dtype": {"type": "DT_FLOAT"}}}, {"name": "StatefulPartitionedCall/sequential_1/keras_layer/StatefulPartitionedCall/StatefulPartitionedCall/StatefulPartitionedCall/blocks_18/StatefulPartitionedCall/se/conv2d_1/BiasAdd/ReadVariableOp", "op": "Const", "input": ["^input_1"], "attr": {"dtype": {"type": "DT_FLOAT"}, "value": {"tensor": {"dtype": "DT_FLOAT", "tensorShape": {"dim": [{"size": "960"}]}}}}}, {"name": "StatefulPartitionedCall/sequential_1/keras_layer/StatefulPartitionedCall/StatefulPartitionedCall/StatefulPartitionedCall/blocks_17/StatefulPartitionedCall/se/Mean/reduction_indices", "op": "Const", "input": ["^input_1"], "attr": {"dtype": {"type": "DT_INT32"}, "value": {"tensor": {"dtype": "DT_INT32", "tensorShape": {"dim": [{"size": "2"}]}}}}}, {"name": "StatefulPartitionedCall/sequential_1/keras_layer/StatefulPartitionedCall/StatefulPartitionedCall/StatefulPartitionedCall/blocks_17/StatefulPartitionedCall/se/conv2d/Conv2D/ReadVariableOp", "op": "Const", "input": ["^input_1"], "attr": {"dtype": {"type": "DT_FLOAT"}, "value": {"tensor": {"dtype": "DT_FLOAT", "tensorShape": {"dim": [{"size": "1"}, {"size": "1"}, {"size": "960"}, {"size": "40"}]}}}}}, {"name": "StatefulPartitionedCall/sequential_1/keras_layer/StatefulPartitionedCall/StatefulPartitionedCall/StatefulPartitionedCall/blocks_17/StatefulPartitionedCall/se/conv2d/BiasAdd/ReadVariableOp", "op": "Const", "input": ["^input_1"], "attr": {"dtype": {"type": "DT_FLOAT"}, "value": {"tensor": {"dtype": "DT_FLOAT", "tensorShape": {"dim": [{"size": "40"}]}}}}}, {"name": "StatefulPartitionedCall/sequential_1/keras_layer/StatefulPartitionedCall/StatefulPartitionedCall/StatefulPartitionedCall/blocks_17/StatefulPartitionedCall/se/conv2d_1/Conv2D/ReadVariableOp", "op": "Const", "input": ["^input_1"], "attr": {"dtype": {"type": "DT_FLOAT"}, "value": {"tensor": {"dtype": "DT_FLOAT", "tensorShape": {"dim": [{"size": "1"}, {"size": "1"}, {"size": "40"}, {"size": "960"}]}}}}}, {"name": "StatefulPartitionedCall/sequential_1/keras_layer/StatefulPartitionedCall/StatefulPartitionedCall/StatefulPartitionedCall/blocks_17/StatefulPartitionedCall/se/conv2d_1/BiasAdd/ReadVariableOp", "op": "Const", "input": ["^input_1"], "attr": {"dtype": {"type": "DT_FLOAT"}, "value": {"tensor": {"dtype": "DT_FLOAT", "tensorShape": {"dim": [{"size": "960"}]}}}}}, {"name": "StatefulPartitionedCall/sequential_1/keras_layer/StatefulPartitionedCall/StatefulPartitionedCall/StatefulPartitionedCall/blocks_16/StatefulPartitionedCall/se/Mean/reduction_indices", "op": "Const", "input": ["^input_1"], "attr": {"dtype": {"type": "DT_INT32"}, "value": {"tensor": {"dtype": "DT_INT32", "tensorShape": {"dim": [{"size": "2"}]}}}}}, {"name": "StatefulPartitionedCall/sequential_1/keras_layer/StatefulPartitionedCall/StatefulPartitionedCall/StatefulPartitionedCall/blocks_16/StatefulPartitionedCall/se/conv2d/Conv2D/ReadVariableOp", "op": "Const", "input": ["^input_1"], "attr": {"dtype": {"type": "DT_FLOAT"}, "value": {"tensor": {"dtype": "DT_FLOAT", "tensorShape": {"dim": [{"size": "1"}, {"size": "1"}, {"size": "768"}, {"size": "32"}]}}}}}, {"name": "StatefulPartitionedCall/sequential_1/keras_layer/StatefulPartitionedCall/StatefulPartitionedCall/StatefulPartitionedCall/blocks_16/StatefulPartitionedCall/se/conv2d/BiasAdd/ReadVariableOp", "op": "Const", "input": ["^input_1"], "attr": {"dtype": {"type": "DT_FLOAT"}, "value": {"tensor": {"dtype": "DT_FLOAT", "tensorShape": {"dim": [{"size": "32"}]}}}}}, {"name": "StatefulPartitionedCall/sequential_1/keras_layer/StatefulPartitionedCall/StatefulPartitionedCall/StatefulPartitionedCall/blocks_16/StatefulPartitionedCall/se/conv2d_1/Conv2D/ReadVariableOp", "op": "Const", "input": ["^input_1"], "attr": {"dtype": {"type": "DT_FLOAT"}, "value": {"tensor": {"dtype": "DT_FLOAT", "tensorShape": {"dim": [{"size": "1"}, {"size": "1"}, {"size": "32"}, {"size": "768"}]}}}}}, {"name": "StatefulPartitionedCall/sequential_1/keras_layer/StatefulPartitionedCall/StatefulPartitionedCall/StatefulPartitionedCall/blocks_16/StatefulPartitionedCall/se/conv2d_1/BiasAdd/ReadVariableOp", "op": "Const", "input": ["^input_1"], "attr": {"dtype": {"type": "DT_FLOAT"}, "value": {"tensor": {"dtype": "DT_FLOAT", "tensorShape": {"dim": [{"size": "768"}]}}}}}, {"name": "StatefulPartitionedCall/sequential_1/keras_layer/StatefulPartitionedCall/StatefulPartitionedCall/StatefulPartitionedCall/blocks_15/StatefulPartitionedCall/se/Mean/reduction_indices", "op": "Const", "input": ["^input_1"], "attr": {"value": {"tensor": {"dtype": "DT_INT32", "tensorShape": {"dim": [{"size": "2"}]}}}, "dtype": {"type": "DT_INT32"}}}, {"name": "StatefulPartitionedCall/sequential_1/keras_layer/StatefulPartitionedCall/StatefulPartitionedCall/StatefulPartitionedCall/blocks_15/StatefulPartitionedCall/se/conv2d/Conv2D/ReadVariableOp", "op": "Const", "input": ["^input_1"], "attr": {"value": {"tensor": {"dtype": "DT_FLOAT", "tensorShape": {"dim": [{"size": "1"}, {"size": "1"}, {"size": "512"}, {"size": "32"}]}}}, "dtype": {"type": "DT_FLOAT"}}}, {"name": "StatefulPartitionedCall/sequential_1/keras_layer/StatefulPartitionedCall/StatefulPartitionedCall/StatefulPartitionedCall/blocks_15/StatefulPartitionedCall/se/conv2d/BiasAdd/ReadVariableOp", "op": "Const", "input": ["^input_1"], "attr": {"value": {"tensor": {"dtype": "DT_FLOAT", "tensorShape": {"dim": [{"size": "32"}]}}}, "dtype": {"type": "DT_FLOAT"}}}, {"name": "StatefulPartitionedCall/sequential_1/keras_layer/StatefulPartitionedCall/StatefulPartitionedCall/StatefulPartitionedCall/blocks_15/StatefulPartitionedCall/se/conv2d_1/Conv2D/ReadVariableOp", "op": "Const", "input": ["^input_1"], "attr": {"dtype": {"type": "DT_FLOAT"}, "value": {"tensor": {"dtype": "DT_FLOAT", "tensorShape": {"dim": [{"size": "1"}, {"size": "1"}, {"size": "32"}, {"size": "512"}]}}}}}, {"name": "StatefulPartitionedCall/sequential_1/keras_layer/StatefulPartitionedCall/StatefulPartitionedCall/StatefulPartitionedCall/blocks_15/StatefulPartitionedCall/se/conv2d_1/BiasAdd/ReadVariableOp", "op": "Const", "input": ["^input_1"], "attr": {"dtype": {"type": "DT_FLOAT"}, "value": {"tensor": {"dtype": "DT_FLOAT", "tensorShape": {"dim": [{"size": "512"}]}}}}}, {"name": "StatefulPartitionedCall/sequential_1/keras_layer/StatefulPartitionedCall/StatefulPartitionedCall/StatefulPartitionedCall/blocks_14/StatefulPartitionedCall/se/Mean/reduction_indices", "op": "Const", "input": ["^input_1"], "attr": {"value": {"tensor": {"dtype": "DT_INT32", "tensorShape": {"dim": [{"size": "2"}]}}}, "dtype": {"type": "DT_INT32"}}}, {"name": "StatefulPartitionedCall/sequential_1/keras_layer/StatefulPartitionedCall/StatefulPartitionedCall/StatefulPartitionedCall/blocks_14/StatefulPartitionedCall/se/conv2d/Conv2D/ReadVariableOp", "op": "Const", "input": ["^input_1"], "attr": {"dtype": {"type": "DT_FLOAT"}, "value": {"tensor": {"dtype": "DT_FLOAT", "tensorShape": {"dim": [{"size": "1"}, {"size": "1"}, {"size": "512"}, {"size": "32"}]}}}}}, {"name": "StatefulPartitionedCall/sequential_1/keras_layer/StatefulPartitionedCall/StatefulPartitionedCall/StatefulPartitionedCall/blocks_14/StatefulPartitionedCall/se/conv2d/BiasAdd/ReadVariableOp", "op": "Const", "input": ["^input_1"], "attr": {"dtype": {"type": "DT_FLOAT"}, "value": {"tensor": {"dtype": "DT_FLOAT", "tensorShape": {"dim": [{"size": "32"}]}}}}}, {"name": "StatefulPartitionedCall/sequential_1/keras_layer/StatefulPartitionedCall/StatefulPartitionedCall/StatefulPartitionedCall/blocks_14/StatefulPartitionedCall/se/conv2d_1/Conv2D/ReadVariableOp", "op": "Const", "input": ["^input_1"], "attr": {"dtype": {"type": "DT_FLOAT"}, "value": {"tensor": {"dtype": "DT_FLOAT", "tensorShape": {"dim": [{"size": "1"}, {"size": "1"}, {"size": "32"}, {"size": "512"}]}}}}}, {"name": "StatefulPartitionedCall/sequential_1/keras_layer/StatefulPartitionedCall/StatefulPartitionedCall/StatefulPartitionedCall/blocks_14/StatefulPartitionedCall/se/conv2d_1/BiasAdd/ReadVariableOp", "op": "Const", "input": ["^input_1"], "attr": {"dtype": {"type": "DT_FLOAT"}, "value": {"tensor": {"dtype": "DT_FLOAT", "tensorShape": {"dim": [{"size": "512"}]}}}}}, {"name": "StatefulPartitionedCall/sequential_1/keras_layer/StatefulPartitionedCall/StatefulPartitionedCall/StatefulPartitionedCall/blocks_13/StatefulPartitionedCall/se/Mean/reduction_indices", "op": "Const", "input": ["^input_1"], "attr": {"value": {"tensor": {"dtype": "DT_INT32", "tensorShape": {"dim": [{"size": "2"}]}}}, "dtype": {"type": "DT_INT32"}}}, {"name": "StatefulPartitionedCall/sequential_1/keras_layer/StatefulPartitionedCall/StatefulPartitionedCall/StatefulPartitionedCall/blocks_13/StatefulPartitionedCall/se/conv2d/Conv2D/ReadVariableOp", "op": "Const", "input": ["^input_1"], "attr": {"dtype": {"type": "DT_FLOAT"}, "value": {"tensor": {"dtype": "DT_FLOAT", "tensorShape": {"dim": [{"size": "1"}, {"size": "1"}, {"size": "512"}, {"size": "32"}]}}}}}, {"name": "StatefulPartitionedCall/sequential_1/keras_layer/StatefulPartitionedCall/StatefulPartitionedCall/StatefulPartitionedCall/blocks_13/StatefulPartitionedCall/se/conv2d/BiasAdd/ReadVariableOp", "op": "Const", "input": ["^input_1"], "attr": {"value": {"tensor": {"dtype": "DT_FLOAT", "tensorShape": {"dim": [{"size": "32"}]}}}, "dtype": {"type": "DT_FLOAT"}}}, {"name": "StatefulPartitionedCall/sequential_1/keras_layer/StatefulPartitionedCall/StatefulPartitionedCall/StatefulPartitionedCall/blocks_13/StatefulPartitionedCall/se/conv2d_1/Conv2D/ReadVariableOp", "op": "Const", "input": ["^input_1"], "attr": {"dtype": {"type": "DT_FLOAT"}, "value": {"tensor": {"dtype": "DT_FLOAT", "tensorShape": {"dim": [{"size": "1"}, {"size": "1"}, {"size": "32"}, {"size": "512"}]}}}}}, {"name": "StatefulPartitionedCall/sequential_1/keras_layer/StatefulPartitionedCall/StatefulPartitionedCall/StatefulPartitionedCall/blocks_13/StatefulPartitionedCall/se/conv2d_1/BiasAdd/ReadVariableOp", "op": "Const", "input": ["^input_1"], "attr": {"dtype": {"type": "DT_FLOAT"}, "value": {"tensor": {"dtype": "DT_FLOAT", "tensorShape": {"dim": [{"size": "512"}]}}}}}, {"name": "StatefulPartitionedCall/sequential_1/keras_layer/StatefulPartitionedCall/StatefulPartitionedCall/StatefulPartitionedCall/blocks_12/StatefulPartitionedCall/se/Mean/reduction_indices", "op": "Const", "input": ["^input_1"], "attr": {"dtype": {"type": "DT_INT32"}, "value": {"tensor": {"dtype": "DT_INT32", "tensorShape": {"dim": [{"size": "2"}]}}}}}, {"name": "StatefulPartitionedCall/sequential_1/keras_layer/StatefulPartitionedCall/StatefulPartitionedCall/StatefulPartitionedCall/blocks_12/StatefulPartitionedCall/se/conv2d/Conv2D/ReadVariableOp", "op": "Const", "input": ["^input_1"], "attr": {"dtype": {"type": "DT_FLOAT"}, "value": {"tensor": {"dtype": "DT_FLOAT", "tensorShape": {"dim": [{"size": "1"}, {"size": "1"}, {"size": "512"}, {"size": "32"}]}}}}}, {"name": "StatefulPartitionedCall/sequential_1/keras_layer/StatefulPartitionedCall/StatefulPartitionedCall/StatefulPartitionedCall/blocks_12/StatefulPartitionedCall/se/conv2d/BiasAdd/ReadVariableOp", "op": "Const", "input": ["^input_1"], "attr": {"dtype": {"type": "DT_FLOAT"}, "value": {"tensor": {"dtype": "DT_FLOAT", "tensorShape": {"dim": [{"size": "32"}]}}}}}, {"name": "StatefulPartitionedCall/sequential_1/keras_layer/StatefulPartitionedCall/StatefulPartitionedCall/StatefulPartitionedCall/blocks_12/StatefulPartitionedCall/se/conv2d_1/Conv2D/ReadVariableOp", "op": "Const", "input": ["^input_1"], "attr": {"dtype": {"type": "DT_FLOAT"}, "value": {"tensor": {"dtype": "DT_FLOAT", "tensorShape": {"dim": [{"size": "1"}, {"size": "1"}, {"size": "32"}, {"size": "512"}]}}}}}, {"name": "StatefulPartitionedCall/sequential_1/keras_layer/StatefulPartitionedCall/StatefulPartitionedCall/StatefulPartitionedCall/blocks_12/StatefulPartitionedCall/se/conv2d_1/BiasAdd/ReadVariableOp", "op": "Const", "input": ["^input_1"], "attr": {"dtype": {"type": "DT_FLOAT"}, "value": {"tensor": {"dtype": "DT_FLOAT", "tensorShape": {"dim": [{"size": "512"}]}}}}}, {"name": "StatefulPartitionedCall/sequential_1/keras_layer/StatefulPartitionedCall/StatefulPartitionedCall/StatefulPartitionedCall/blocks_11/StatefulPartitionedCall/se/Mean/reduction_indices", "op": "Const", "input": ["^input_1"], "attr": {"dtype": {"type": "DT_INT32"}, "value": {"tensor": {"dtype": "DT_INT32", "tensorShape": {"dim": [{"size": "2"}]}}}}}, {"name": "StatefulPartitionedCall/sequential_1/keras_layer/StatefulPartitionedCall/StatefulPartitionedCall/StatefulPartitionedCall/blocks_11/StatefulPartitionedCall/se/conv2d/Conv2D/ReadVariableOp", "op": "Const", "input": ["^input_1"], "attr": {"dtype": {"type": "DT_FLOAT"}, "value": {"tensor": {"dtype": "DT_FLOAT", "tensorShape": {"dim": [{"size": "1"}, {"size": "1"}, {"size": "512"}, {"size": "32"}]}}}}}, {"name": "StatefulPartitionedCall/sequential_1/keras_layer/StatefulPartitionedCall/StatefulPartitionedCall/StatefulPartitionedCall/blocks_11/StatefulPartitionedCall/se/conv2d/BiasAdd/ReadVariableOp", "op": "Const", "input": ["^input_1"], "attr": {"dtype": {"type": "DT_FLOAT"}, "value": {"tensor": {"dtype": "DT_FLOAT", "tensorShape": {"dim": [{"size": "32"}]}}}}}, {"name": "StatefulPartitionedCall/sequential_1/keras_layer/StatefulPartitionedCall/StatefulPartitionedCall/StatefulPartitionedCall/blocks_11/StatefulPartitionedCall/se/conv2d_1/Conv2D/ReadVariableOp", "op": "Const", "input": ["^input_1"], "attr": {"dtype": {"type": "DT_FLOAT"}, "value": {"tensor": {"dtype": "DT_FLOAT", "tensorShape": {"dim": [{"size": "1"}, {"size": "1"}, {"size": "32"}, {"size": "512"}]}}}}}, {"name": "StatefulPartitionedCall/sequential_1/keras_layer/StatefulPartitionedCall/StatefulPartitionedCall/StatefulPartitionedCall/blocks_11/StatefulPartitionedCall/se/conv2d_1/BiasAdd/ReadVariableOp", "op": "Const", "input": ["^input_1"], "attr": {"dtype": {"type": "DT_FLOAT"}, "value": {"tensor": {"dtype": "DT_FLOAT", "tensorShape": {"dim": [{"size": "512"}]}}}}}, {"name": "StatefulPartitionedCall/sequential_1/keras_layer/StatefulPartitionedCall/StatefulPartitionedCall/StatefulPartitionedCall/blocks_10/StatefulPartitionedCall/se/Mean/reduction_indices", "op": "Const", "input": ["^input_1"], "attr": {"value": {"tensor": {"dtype": "DT_INT32", "tensorShape": {"dim": [{"size": "2"}]}}}, "dtype": {"type": "DT_INT32"}}}, {"name": "StatefulPartitionedCall/sequential_1/keras_layer/StatefulPartitionedCall/StatefulPartitionedCall/StatefulPartitionedCall/blocks_10/StatefulPartitionedCall/se/conv2d/Conv2D/ReadVariableOp", "op": "Const", "input": ["^input_1"], "attr": {"dtype": {"type": "DT_FLOAT"}, "value": {"tensor": {"dtype": "DT_FLOAT", "tensorShape": {"dim": [{"size": "1"}, {"size": "1"}, {"size": "256"}, {"size": "16"}]}}}}}, {"name": "StatefulPartitionedCall/sequential_1/keras_layer/StatefulPartitionedCall/StatefulPartitionedCall/StatefulPartitionedCall/blocks_10/StatefulPartitionedCall/se/conv2d/BiasAdd/ReadVariableOp", "op": "Const", "input": ["^input_1"], "attr": {"value": {"tensor": {"dtype": "DT_FLOAT", "tensorShape": {"dim": [{"size": "16"}]}}}, "dtype": {"type": "DT_FLOAT"}}}, {"name": "StatefulPartitionedCall/sequential_1/keras_layer/StatefulPartitionedCall/StatefulPartitionedCall/StatefulPartitionedCall/blocks_10/StatefulPartitionedCall/se/conv2d_1/Conv2D/ReadVariableOp", "op": "Const", "input": ["^input_1"], "attr": {"dtype": {"type": "DT_FLOAT"}, "value": {"tensor": {"dtype": "DT_FLOAT", "tensorShape": {"dim": [{"size": "1"}, {"size": "1"}, {"size": "16"}, {"size": "256"}]}}}}}, {"name": "StatefulPartitionedCall/sequential_1/keras_layer/StatefulPartitionedCall/StatefulPartitionedCall/StatefulPartitionedCall/blocks_10/StatefulPartitionedCall/se/conv2d_1/BiasAdd/ReadVariableOp", "op": "Const", "input": ["^input_1"], "attr": {"value": {"tensor": {"dtype": "DT_FLOAT", "tensorShape": {"dim": [{"size": "256"}]}}}, "dtype": {"type": "DT_FLOAT"}}}, {"name": "StatefulPartitionedCall/sequential_1/keras_layer/StatefulPartitionedCall/StatefulPartitionedCall/StatefulPartitionedCall/head/StatefulPartitionedCall/global_average_pooling2d/Mean/reduction_indices", "op": "Const", "input": ["^input_1"], "attr": {"dtype": {"type": "DT_INT32"}, "value": {"tensor": {"dtype": "DT_INT32", "tensorShape": {"dim": [{"size": "2"}]}}}}}, {"name": "StatefulPartitionedCall/sequential_1/keras_layer/StatefulPartitionedCall/StatefulPartitionedCall/StatefulPartitionedCall/head/dense/StatefulPartitionedCall/MatMul/ReadVariableOp", "op": "Const", "input": ["^input_1"], "attr": {"dtype": {"type": "DT_FLOAT"}, "value": {"tensor": {"dtype": "DT_FLOAT", "tensorShape": {"dim": [{"size": "1280"}, {"size": "1000"}]}}}}}, {"name": "StatefulPartitionedCall/sequential_1/keras_layer/StatefulPartitionedCall/StatefulPartitionedCall/StatefulPartitionedCall/head/dense/StatefulPartitionedCall/BiasAdd/ReadVariableOp", "op": "Const", "input": ["^input_1"], "attr": {"dtype": {"type": "DT_FLOAT"}, "value": {"tensor": {"dtype": "DT_FLOAT", "tensorShape": {"dim": [{"size": "1000"}]}}}}}, {"name": "StatefulPartitionedCall/sequential_1/keras_layer/StatefulPartitionedCall/StatefulPartitionedCall/StatefulPartitionedCall/stem/StatefulPartitionedCall/tpu_batch_normalization/FusedBatchNormV3", "op": "_FusedConv2D", "input": ["input_1", "StatefulPartitionedCall/sequential_1/keras_layer/StatefulPartitionedCall/StatefulPartitionedCall/StatefulPartitionedCall/stem/StatefulPartitionedCall/conv2d/Conv2D_weights", "StatefulPartitionedCall/sequential_1/keras_layer/StatefulPartitionedCall/StatefulPartitionedCall/StatefulPartitionedCall/stem/StatefulPartitionedCall/conv2d/Conv2D_bn_offset"], "device": "/device:CPU:0", "attr": {"T": {"type": "DT_FLOAT"}, "leakyrelu_alpha": {"f": 0.2}, "dilations": {"list": {"i": ["1", "1", "1", "1"]}}, "explicit_paddings": {"list": {}}, "epsilon": {"f": 0.0}, "padding": {"s": "U0FNRQ=="}, "strides": {"list": {"i": ["1", "2", "2", "1"]}}, "num_args": {"i": "1"}, "fused_ops": {"list": {"s": ["Qmlhc0FkZA=="]}}, "data_format": {"s": "TkhXQw=="}, "use_cudnn_on_gpu": {"b": true}}}, {"name": "StatefulPartitionedCall/sequential_1/keras_layer/StatefulPartitionedCall/StatefulPartitionedCall/StatefulPartitionedCall/stem/StatefulPartitionedCall/Sigmoid", "op": "Sigmoid", "input": ["StatefulPartitionedCall/sequential_1/keras_layer/StatefulPartitionedCall/StatefulPartitionedCall/StatefulPartitionedCall/stem/StatefulPartitionedCall/tpu_batch_normalization/FusedBatchNormV3"], "attr": {"T": {"type": "DT_FLOAT"}}}, {"name": "StatefulPartitionedCall/sequential_1/keras_layer/StatefulPartitionedCall/StatefulPartitionedCall/StatefulPartitionedCall/stem/StatefulPartitionedCall/mul", "op": "Mul", "input": ["StatefulPartitionedCall/sequential_1/keras_layer/StatefulPartitionedCall/StatefulPartitionedCall/StatefulPartitionedCall/stem/StatefulPartitionedCall/tpu_batch_normalization/FusedBatchNormV3", "StatefulPartitionedCall/sequential_1/keras_layer/StatefulPartitionedCall/StatefulPartitionedCall/StatefulPartitionedCall/stem/StatefulPartitionedCall/Sigmoid"], "attr": {"T": {"type": "DT_FLOAT"}}}, {"name": "StatefulPartitionedCall/sequential_1/keras_layer/StatefulPartitionedCall/StatefulPartitionedCall/StatefulPartitionedCall/blocks_0/StatefulPartitionedCall/tpu_batch_normalization/FusedBatchNormV3", "op": "_FusedConv2D", "input": ["StatefulPartitionedCall/sequential_1/keras_layer/StatefulPartitionedCall/StatefulPartitionedCall/StatefulPartitionedCall/stem/StatefulPartitionedCall/mul", "StatefulPartitionedCall/sequential_1/keras_layer/StatefulPartitionedCall/StatefulPartitionedCall/StatefulPartitionedCall/blocks_0/StatefulPartitionedCall/conv2d/Conv2D_weights", "StatefulPartitionedCall/sequential_1/keras_layer/StatefulPartitionedCall/StatefulPartitionedCall/StatefulPartitionedCall/blocks_0/StatefulPartitionedCall/conv2d/Conv2D_bn_offset"], "device": "/device:CPU:0", "attr": {"T": {"type": "DT_FLOAT"}, "strides": {"list": {"i": ["1", "1", "1", "1"]}}, "data_format": {"s": "TkhXQw=="}, "explicit_paddings": {"list": {}}, "fused_ops": {"list": {"s": ["Qmlhc0FkZA=="]}}, "padding": {"s": "U0FNRQ=="}, "dilations": {"list": {"i": ["1", "1", "1", "1"]}}, "leakyrelu_alpha": {"f": 0.2}, "epsilon": {"f": 0.0}, "num_args": {"i": "1"}, "use_cudnn_on_gpu": {"b": true}}}, {"name": "StatefulPartitionedCall/sequential_1/keras_layer/StatefulPartitionedCall/StatefulPartitionedCall/StatefulPartitionedCall/blocks_0/StatefulPartitionedCall/Sigmoid", "op": "Sigmoid", "input": ["StatefulPartitionedCall/sequential_1/keras_layer/StatefulPartitionedCall/StatefulPartitionedCall/StatefulPartitionedCall/blocks_0/StatefulPartitionedCall/tpu_batch_normalization/FusedBatchNormV3"], "attr": {"T": {"type": "DT_FLOAT"}}}, {"name": "StatefulPartitionedCall/sequential_1/keras_layer/StatefulPartitionedCall/StatefulPartitionedCall/StatefulPartitionedCall/blocks_0/StatefulPartitionedCall/mul", "op": "Mul", "input": ["StatefulPartitionedCall/sequential_1/keras_layer/StatefulPartitionedCall/StatefulPartitionedCall/StatefulPartitionedCall/blocks_0/StatefulPartitionedCall/tpu_batch_normalization/FusedBatchNormV3", "StatefulPartitionedCall/sequential_1/keras_layer/StatefulPartitionedCall/StatefulPartitionedCall/StatefulPartitionedCall/blocks_0/StatefulPartitionedCall/Sigmoid"], "attr": {"T": {"type": "DT_FLOAT"}}}, {"name": "StatefulPartitionedCall/sequential_1/keras_layer/StatefulPartitionedCall/StatefulPartitionedCall/StatefulPartitionedCall/blocks_0/StatefulPartitionedCall/Add", "op": "AddV2", "input": ["StatefulPartitionedCall/sequential_1/keras_layer/StatefulPartitionedCall/StatefulPartitionedCall/StatefulPartitionedCall/blocks_0/StatefulPartitionedCall/mul", "StatefulPartitionedCall/sequential_1/keras_layer/StatefulPartitionedCall/StatefulPartitionedCall/StatefulPartitionedCall/stem/StatefulPartitionedCall/mul"], "attr": {"T": {"type": "DT_FLOAT"}}}, {"name": "StatefulPartitionedCall/sequential_1/keras_layer/StatefulPartitionedCall/StatefulPartitionedCall/StatefulPartitionedCall/blocks_1/StatefulPartitionedCall/tpu_batch_normalization/FusedBatchNormV3", "op": "_FusedConv2D", "input": ["StatefulPartitionedCall/sequential_1/keras_layer/StatefulPartitionedCall/StatefulPartitionedCall/StatefulPartitionedCall/blocks_0/StatefulPartitionedCall/Add", "StatefulPartitionedCall/sequential_1/keras_layer/StatefulPartitionedCall/StatefulPartitionedCall/StatefulPartitionedCall/blocks_1/StatefulPartitionedCall/conv2d/Conv2D_weights", "StatefulPartitionedCall/sequential_1/keras_layer/StatefulPartitionedCall/StatefulPartitionedCall/StatefulPartitionedCall/blocks_1/StatefulPartitionedCall/conv2d/Conv2D_bn_offset"], "device": "/device:CPU:0", "attr": {"epsilon": {"f": 0.0}, "dilations": {"list": {"i": ["1", "1", "1", "1"]}}, "fused_ops": {"list": {"s": ["Qmlhc0FkZA=="]}}, "T": {"type": "DT_FLOAT"}, "strides": {"list": {"i": ["1", "1", "1", "1"]}}, "num_args": {"i": "1"}, "data_format": {"s": "TkhXQw=="}, "explicit_paddings": {"list": {}}, "use_cudnn_on_gpu": {"b": true}, "padding": {"s": "U0FNRQ=="}, "leakyrelu_alpha": {"f": 0.2}}}, {"name": "StatefulPartitionedCall/sequential_1/keras_layer/StatefulPartitionedCall/StatefulPartitionedCall/StatefulPartitionedCall/blocks_1/StatefulPartitionedCall/Sigmoid", "op": "Sigmoid", "input": ["StatefulPartitionedCall/sequential_1/keras_layer/StatefulPartitionedCall/StatefulPartitionedCall/StatefulPartitionedCall/blocks_1/StatefulPartitionedCall/tpu_batch_normalization/FusedBatchNormV3"], "attr": {"T": {"type": "DT_FLOAT"}}}, {"name": "StatefulPartitionedCall/sequential_1/keras_layer/StatefulPartitionedCall/StatefulPartitionedCall/StatefulPartitionedCall/blocks_1/StatefulPartitionedCall/mul", "op": "Mul", "input": ["StatefulPartitionedCall/sequential_1/keras_layer/StatefulPartitionedCall/StatefulPartitionedCall/StatefulPartitionedCall/blocks_1/StatefulPartitionedCall/tpu_batch_normalization/FusedBatchNormV3", "StatefulPartitionedCall/sequential_1/keras_layer/StatefulPartitionedCall/StatefulPartitionedCall/StatefulPartitionedCall/blocks_1/StatefulPartitionedCall/Sigmoid"], "attr": {"T": {"type": "DT_FLOAT"}}}, {"name": "StatefulPartitionedCall/sequential_1/keras_layer/StatefulPartitionedCall/StatefulPartitionedCall/StatefulPartitionedCall/blocks_1/StatefulPartitionedCall/Add", "op": "AddV2", "input": ["StatefulPartitionedCall/sequential_1/keras_layer/StatefulPartitionedCall/StatefulPartitionedCall/StatefulPartitionedCall/blocks_1/StatefulPartitionedCall/mul", "StatefulPartitionedCall/sequential_1/keras_layer/StatefulPartitionedCall/StatefulPartitionedCall/StatefulPartitionedCall/blocks_0/StatefulPartitionedCall/Add"], "attr": {"T": {"type": "DT_FLOAT"}}}, {"name": "StatefulPartitionedCall/sequential_1/keras_layer/StatefulPartitionedCall/StatefulPartitionedCall/StatefulPartitionedCall/blocks_2/StatefulPartitionedCall/tpu_batch_normalization/FusedBatchNormV3", "op": "_FusedConv2D", "input": ["StatefulPartitionedCall/sequential_1/keras_layer/StatefulPartitionedCall/StatefulPartitionedCall/StatefulPartitionedCall/blocks_1/StatefulPartitionedCall/Add", "StatefulPartitionedCall/sequential_1/keras_layer/StatefulPartitionedCall/StatefulPartitionedCall/StatefulPartitionedCall/blocks_2/StatefulPartitionedCall/conv2d/Conv2D_weights", "StatefulPartitionedCall/sequential_1/keras_layer/StatefulPartitionedCall/StatefulPartitionedCall/StatefulPartitionedCall/blocks_2/StatefulPartitionedCall/conv2d/Conv2D_bn_offset"], "device": "/device:CPU:0", "attr": {"explicit_paddings": {"list": {}}, "leakyrelu_alpha": {"f": 0.2}, "padding": {"s": "U0FNRQ=="}, "strides": {"list": {"i": ["1", "2", "2", "1"]}}, "fused_ops": {"list": {"s": ["Qmlhc0FkZA=="]}}, "num_args": {"i": "1"}, "use_cudnn_on_gpu": {"b": true}, "data_format": {"s": "TkhXQw=="}, "dilations": {"list": {"i": ["1", "1", "1", "1"]}}, "T": {"type": "DT_FLOAT"}, "epsilon": {"f": 0.0}}}, {"name": "StatefulPartitionedCall/sequential_1/keras_layer/StatefulPartitionedCall/StatefulPartitionedCall/StatefulPartitionedCall/blocks_2/StatefulPartitionedCall/Sigmoid", "op": "Sigmoid", "input": ["StatefulPartitionedCall/sequential_1/keras_layer/StatefulPartitionedCall/StatefulPartitionedCall/StatefulPartitionedCall/blocks_2/StatefulPartitionedCall/tpu_batch_normalization/FusedBatchNormV3"], "attr": {"T": {"type": "DT_FLOAT"}}}, {"name": "StatefulPartitionedCall/sequential_1/keras_layer/StatefulPartitionedCall/StatefulPartitionedCall/StatefulPartitionedCall/blocks_2/StatefulPartitionedCall/mul", "op": "Mul", "input": ["StatefulPartitionedCall/sequential_1/keras_layer/StatefulPartitionedCall/StatefulPartitionedCall/StatefulPartitionedCall/blocks_2/StatefulPartitionedCall/tpu_batch_normalization/FusedBatchNormV3", "StatefulPartitionedCall/sequential_1/keras_layer/StatefulPartitionedCall/StatefulPartitionedCall/StatefulPartitionedCall/blocks_2/StatefulPartitionedCall/Sigmoid"], "attr": {"T": {"type": "DT_FLOAT"}}}, {"name": "StatefulPartitionedCall/sequential_1/keras_layer/StatefulPartitionedCall/StatefulPartitionedCall/StatefulPartitionedCall/blocks_2/StatefulPartitionedCall/tpu_batch_normalization_1/FusedBatchNormV3", "op": "_FusedConv2D", "input": ["StatefulPartitionedCall/sequential_1/keras_layer/StatefulPartitionedCall/StatefulPartitionedCall/StatefulPartitionedCall/blocks_2/StatefulPartitionedCall/mul", "StatefulPartitionedCall/sequential_1/keras_layer/StatefulPartitionedCall/StatefulPartitionedCall/StatefulPartitionedCall/blocks_2/StatefulPartitionedCall/conv2d_1/Conv2D_weights", "StatefulPartitionedCall/sequential_1/keras_layer/StatefulPartitionedCall/StatefulPartitionedCall/StatefulPartitionedCall/blocks_2/StatefulPartitionedCall/conv2d_1/Conv2D_bn_offset"], "device": "/device:CPU:0", "attr": {"strides": {"list": {"i": ["1", "1", "1", "1"]}}, "padding": {"s": "U0FNRQ=="}, "T": {"type": "DT_FLOAT"}, "exp…
lPartitionedCall/depthwise_conv2d/depthwise_bn_offset", "shape": [1536], "dtype": "float32"}, {"name": "StatefulPartitionedCall/sequential_1/keras_layer/StatefulPartitionedCall/StatefulPartitionedCall/StatefulPartitionedCall/blocks_26/StatefulPartitionedCall/conv2d_1/Conv2D_bn_offset", "shape": [256], "dtype": "float32"}, {"name": "StatefulPartitionedCall/sequential_1/keras_layer/StatefulPartitionedCall/StatefulPartitionedCall/StatefulPartitionedCall/blocks_27/StatefulPartitionedCall/conv2d/Conv2D_weights", "shape": [1, 1, 256, 1536], "dtype": "float32"}, {"name": "StatefulPartitionedCall/sequential_1/keras_layer/StatefulPartitionedCall/StatefulPartitionedCall/StatefulPartitionedCall/blocks_27/StatefulPartitionedCall/conv2d/Conv2D_bn_offset", "shape": [1536], "dtype": "float32"}, {"name": "StatefulPartitionedCall/sequential_1/keras_layer/StatefulPartitionedCall/StatefulPartitionedCall/StatefulPartitionedCall/blocks_27/StatefulPartitionedCall/depthwise_conv2d/depthwise_weights", "shape": [3, 3, 1536, 1], "dtype": "float32"}, {"name": "StatefulPartitionedCall/sequential_1/keras_layer/StatefulPartitionedCall/StatefulPartitionedCall/StatefulPartitionedCall/blocks_27/StatefulPartitionedCall/depthwise_conv2d/depthwise_bn_offset", "shape": [1536], "dtype": "float32"}, {"name": "StatefulPartitionedCall/sequential_1/keras_layer/StatefulPartitionedCall/StatefulPartitionedCall/StatefulPartitionedCall/blocks_27/StatefulPartitionedCall/conv2d_1/Conv2D_weights", "shape": [1, 1, 1536, 256], "dtype": "float32"}, {"name": "StatefulPartitionedCall/sequential_1/keras_layer/StatefulPartitionedCall/StatefulPartitionedCall/StatefulPartitionedCall/blocks_27/StatefulPartitionedCall/conv2d_1/Conv2D_bn_offset", "shape": [256], "dtype": "float32"}, {"name": "StatefulPartitionedCall/sequential_1/keras_layer/StatefulPartitionedCall/StatefulPartitionedCall/StatefulPartitionedCall/blocks_28/StatefulPartitionedCall/conv2d/Conv2D_weights", "shape": [1, 1, 256, 1536], "dtype": "float32"}, {"name": "StatefulPartitionedCall/sequential_1/keras_layer/StatefulPartitionedCall/StatefulPartitionedCall/StatefulPartitionedCall/head/StatefulPartitionedCall/conv2d/Conv2D_bn_offset", "shape": [1280], "dtype": "float32"}, {"name": "StatefulPartitionedCall/sequential_1/keras_layer/StatefulPartitionedCall/StatefulPartitionedCall/StatefulPartitionedCall/blocks_28/StatefulPartitionedCall/conv2d/Conv2D_bn_offset", "shape": [1536], "dtype": "float32"}, {"name": "StatefulPartitionedCall/sequential_1/keras_layer/StatefulPartitionedCall/StatefulPartitionedCall/StatefulPartitionedCall/blocks_28/StatefulPartitionedCall/depthwise_conv2d/depthwise_weights", "shape": [3, 3, 1536, 1], "dtype": "float32"}, {"name": "StatefulPartitionedCall/sequential_1/keras_layer/StatefulPartitionedCall/StatefulPartitionedCall/StatefulPartitionedCall/blocks_28/StatefulPartitionedCall/depthwise_conv2d/depthwise_bn_offset", "shape": [1536], "dtype": "float32"}, {"name": "StatefulPartitionedCall/sequential_1/keras_layer/StatefulPartitionedCall/StatefulPartitionedCall/StatefulPartitionedCall/blocks_28/StatefulPartitionedCall/conv2d_1/Conv2D_weights", "shape": [1, 1, 1536, 256], "dtype": "float32"}, {"name": "StatefulPartitionedCall/sequential_1/keras_layer/StatefulPartitionedCall/StatefulPartitionedCall/StatefulPartitionedCall/blocks_28/StatefulPartitionedCall/conv2d_1/Conv2D_bn_offset", "shape": [256], "dtype": "float32"}, {"name": "StatefulPartitionedCall/sequential_1/keras_layer/StatefulPartitionedCall/StatefulPartitionedCall/StatefulPartitionedCall/blocks_29/StatefulPartitionedCall/conv2d/Conv2D_weights", "shape": [1, 1, 256, 1536], "dtype": "float32"}, {"name": "StatefulPartitionedCall/sequential_1/keras_layer/StatefulPartitionedCall/StatefulPartitionedCall/StatefulPartitionedCall/blocks_29/StatefulPartitionedCall/conv2d/Conv2D_bn_offset", "shape": [1536], "dtype": "float32"}, {"name": "StatefulPartitionedCall/sequential_1/keras_layer/StatefulPartitionedCall/StatefulPartitionedCall/StatefulPartitionedCall/blocks_29/StatefulPartitionedCall/depthwise_conv2d/depthwise_weights", "shape": [3, 3, 1536, 1], "dtype": "float32"}, {"name": "StatefulPartitionedCall/sequential_1/keras_layer/StatefulPartitionedCall/StatefulPartitionedCall/StatefulPartitionedCall/blocks_29/StatefulPartitionedCall/depthwise_conv2d/depthwise_bn_offset", "shape": [1536], "dtype": "float32"}, {"name": "StatefulPartitionedCall/sequential_1/keras_layer/StatefulPartitionedCall/StatefulPartitionedCall/StatefulPartitionedCall/blocks_29/StatefulPartitionedCall/conv2d_1/Conv2D_weights", "shape": [1, 1, 1536, 256], "dtype": "float32"}, {"name": "StatefulPartitionedCall/sequential_1/keras_layer/StatefulPartitionedCall/StatefulPartitionedCall/StatefulPartitionedCall/blocks_29/StatefulPartitionedCall/conv2d_1/Conv2D_bn_offset", "shape": [256], "dtype": "float32"}, {"name": "StatefulPartitionedCall/sequential_1/keras_layer/StatefulPartitionedCall/StatefulPartitionedCall/StatefulPartitionedCall/blocks_30/StatefulPartitionedCall/conv2d/Conv2D_weights", "shape": [1, 1, 256, 1536], "dtype": "float32"}, {"name": "StatefulPartitionedCall/sequential_1/keras_layer/StatefulPartitionedCall/StatefulPartitionedCall/StatefulPartitionedCall/blocks_38/StatefulPartitionedCall/conv2d_1/Conv2D_weights", "shape": [1, 1, 1536, 256], "dtype": "float32"}, {"name": "StatefulPartitionedCall/sequential_1/keras_layer/StatefulPartitionedCall/StatefulPartitionedCall/StatefulPartitionedCall/blocks_30/StatefulPartitionedCall/conv2d/Conv2D_bn_offset", "shape": [1536], "dtype": "float32"}, {"name": "StatefulPartitionedCall/sequential_1/keras_layer/StatefulPartitionedCall/StatefulPartitionedCall/StatefulPartitionedCall/blocks_30/StatefulPartitionedCall/depthwise_conv2d/depthwise_weights", "shape": [3, 3, 1536, 1], "dtype": "float32"}, {"name": "StatefulPartitionedCall/sequential_1/keras_layer/StatefulPartitionedCall/StatefulPartitionedCall/StatefulPartitionedCall/blocks_30/StatefulPartitionedCall/depthwise_conv2d/depthwise_bn_offset", "shape": [1536], "dtype": "float32"}, {"name": "StatefulPartitionedCall/sequential_1/keras_layer/StatefulPartitionedCall/StatefulPartitionedCall/StatefulPartitionedCall/blocks_38/StatefulPartitionedCall/conv2d_1/Conv2D_bn_offset", "shape": [256], "dtype": "float32"}, {"name": "StatefulPartitionedCall/sequential_1/keras_layer/StatefulPartitionedCall/StatefulPartitionedCall/StatefulPartitionedCall/blocks_30/StatefulPartitionedCall/conv2d_1/Conv2D_weights", "shape": [1, 1, 1536, 256], "dtype": "float32"}, {"name": "StatefulPartitionedCall/sequential_1/keras_layer/StatefulPartitionedCall/StatefulPartitionedCall/StatefulPartitionedCall/blocks_30/StatefulPartitionedCall/conv2d_1/Conv2D_bn_offset", "shape": [256], "dtype": "float32"}, {"name": "StatefulPartitionedCall/sequential_1/keras_layer/StatefulPartitionedCall/StatefulPartitionedCall/StatefulPartitionedCall/blocks_31/StatefulPartitionedCall/conv2d/Conv2D_weights", "shape": [1, 1, 256, 1536], "dtype": "float32"}, {"name": "StatefulPartitionedCall/sequential_1/keras_layer/StatefulPartitionedCall/StatefulPartitionedCall/StatefulPartitionedCall/blocks_31/StatefulPartitionedCall/conv2d/Conv2D_bn_offset", "shape": [1536], "dtype": "float32"}, {"name": "StatefulPartitionedCall/sequential_1/keras_layer/StatefulPartitionedCall/StatefulPartitionedCall/StatefulPartitionedCall/blocks_31/StatefulPartitionedCall/depthwise_conv2d/depthwise_weights", "shape": [3, 3, 1536, 1], "dtype": "float32"}, {"name": "StatefulPartitionedCall/sequential_1/keras_layer/StatefulPartitionedCall/StatefulPartitionedCall/StatefulPartitionedCall/blocks_31/StatefulPartitionedCall/depthwise_conv2d/depthwise_bn_offset", "shape": [1536], "dtype": "float32"}, {"name": "StatefulPartitionedCall/sequential_1/keras_layer/StatefulPartitionedCall/StatefulPartitionedCall/StatefulPartitionedCall/blocks_39/StatefulPartitionedCall/conv2d/Conv2D_weights", "shape": [1, 1, 256, 1536], "dtype": "float32"}, {"name": "StatefulPartitionedCall/sequential_1/keras_layer/StatefulPartitionedCall/StatefulPartitionedCall/StatefulPartitionedCall/blocks_31/StatefulPartitionedCall/conv2d_1/Conv2D_weights", "shape": [1, 1, 1536, 256], "dtype": "float32"}, {"name": "StatefulPartitionedCall/sequential_1/keras_layer/StatefulPartitionedCall/StatefulPartitionedCall/StatefulPartitionedCall/blocks_39/StatefulPartitionedCall/conv2d/Conv2D_bn_offset", "shape": [1536], "dtype": "float32"}, {"name": "StatefulPartitionedCall/sequential_1/keras_layer/StatefulPartitionedCall/StatefulPartitionedCall/StatefulPartitionedCall/blocks_31/StatefulPartitionedCall/conv2d_1/Conv2D_bn_offset", "shape": [256], "dtype": "float32"}, {"name": "StatefulPartitionedCall/sequential_1/keras_layer/StatefulPartitionedCall/StatefulPartitionedCall/StatefulPartitionedCall/blocks_32/StatefulPartitionedCall/conv2d/Conv2D_weights", "shape": [1, 1, 256, 1536], "dtype": "float32"}, {"name": "StatefulPartitionedCall/sequential_1/keras_layer/StatefulPartitionedCall/StatefulPartitionedCall/StatefulPartitionedCall/blocks_32/StatefulPartitionedCall/conv2d/Conv2D_bn_offset", "shape": [1536], "dtype": "float32"}, {"name": "StatefulPartitionedCall/sequential_1/keras_layer/StatefulPartitionedCall/StatefulPartitionedCall/StatefulPartitionedCall/blocks_32/StatefulPartitionedCall/depthwise_conv2d/depthwise_weights", "shape": [3, 3, 1536, 1], "dtype": "float32"}, {"name": "StatefulPartitionedCall/sequential_1/keras_layer/StatefulPartitionedCall/StatefulPartitionedCall/StatefulPartitionedCall/blocks_32/StatefulPartitionedCall/depthwise_conv2d/depthwise_bn_offset", "shape": [1536], "dtype": "float32"}, {"name": "StatefulPartitionedCall/sequential_1/keras_layer/StatefulPartitionedCall/StatefulPartitionedCall/StatefulPartitionedCall/blocks_32/StatefulPartitionedCall/conv2d_1/Conv2D_weights", "shape": [1, 1, 1536, 256], "dtype": "float32"}, {"name": "StatefulPartitionedCall/sequential_1/keras_layer/StatefulPartitionedCall/StatefulPartitionedCall/StatefulPartitionedCall/blocks_39/StatefulPartitionedCall/depthwise_conv2d/depthwise_weights", "shape": [3, 3, 1536, 1], "dtype": "float32"}, {"name": "StatefulPartitionedCall/sequential_1/keras_layer/StatefulPartitionedCall/StatefulPartitionedCall/StatefulPartitionedCall/blocks_32/StatefulPartitionedCall/conv2d_1/Conv2D_bn_offset", "shape": [256], "dtype": "float32"}, {"name": "StatefulPartitionedCall/sequential_1/keras_layer/StatefulPartitionedCall/StatefulPartitionedCall/StatefulPartitionedCall/blocks_33/StatefulPartitionedCall/conv2d/Conv2D_weights", "shape": [1, 1, 256, 1536], "dtype": "float32"}, {"name": "StatefulPartitionedCall/sequential_1/keras_layer/StatefulPartitionedCall/StatefulPartitionedCall/StatefulPartitionedCall/blocks_33/StatefulPartitionedCall/conv2d/Conv2D_bn_offset", "shape": [1536], "dtype": "float32"}, {"name": "StatefulPartitionedCall/sequential_1/keras_layer/StatefulPartitionedCall/StatefulPartitionedCall/StatefulPartitionedCall/blocks_33/StatefulPartitionedCall/depthwise_conv2d/depthwise_weights", "shape": [3, 3, 1536, 1], "dtype": "float32"}, {"name": "StatefulPartitionedCall/sequential_1/keras_layer/StatefulPartitionedCall/StatefulPartitionedCall/StatefulPartitionedCall/blocks_33/StatefulPartitionedCall/depthwise_conv2d/depthwise_bn_offset", "shape": [1536], "dtype": "float32"}, {"name": "StatefulPartitionedCall/sequential_1/keras_layer/StatefulPartitionedCall/StatefulPartitionedCall/StatefulPartitionedCall/blocks_39/StatefulPartitionedCall/depthwise_conv2d/depthwise_bn_offset", "shape": [1536], "dtype": "float32"}, {"name": "StatefulPartitionedCall/sequential_1/keras_layer/StatefulPartitionedCall/StatefulPartitionedCall/StatefulPartitionedCall/blocks_33/StatefulPartitionedCall/conv2d_1/Conv2D_weights", "shape": [1, 1, 1536, 256], "dtype": "float32"}, {"name": "StatefulPartitionedCall/sequential_1/keras_layer/StatefulPartitionedCall/StatefulPartitionedCall/StatefulPartitionedCall/blocks_33/StatefulPartitionedCall/conv2d_1/Conv2D_bn_offset", "shape": [256], "dtype": "float32"}, {"name": "StatefulPartitionedCall/sequential_1/keras_layer/StatefulPartitionedCall/StatefulPartitionedCall/StatefulPartitionedCall/blocks_34/StatefulPartitionedCall/conv2d/Conv2D_weights", "shape": [1, 1, 256, 1536], "dtype": "float32"}, {"name": "StatefulPartitionedCall/sequential_1/keras_layer/StatefulPartitionedCall/StatefulPartitionedCall/StatefulPartitionedCall/blocks_34/StatefulPartitionedCall/conv2d/Conv2D_bn_offset", "shape": [1536], "dtype": "float32"}, {"name": "StatefulPartitionedCall/sequential_1/keras_layer/StatefulPartitionedCall/StatefulPartitionedCall/StatefulPartitionedCall/blocks_34/StatefulPartitionedCall/depthwise_conv2d/depthwise_weights", "shape": [3, 3, 1536, 1], "dtype": "float32"}, {"name": "StatefulPartitionedCall/sequential_1/keras_layer/StatefulPartitionedCall/StatefulPartitionedCall/StatefulPartitionedCall/blocks_34/StatefulPartitionedCall/depthwise_conv2d/depthwise_bn_offset", "shape": [1536], "dtype": "float32"}, {"name": "StatefulPartitionedCall/sequential_1/keras_layer/StatefulPartitionedCall/StatefulPartitionedCall/StatefulPartitionedCall/blocks_34/StatefulPartitionedCall/conv2d_1/Conv2D_weights", "shape": [1, 1, 1536, 256], "dtype": "float32"}, {"name": "StatefulPartitionedCall/sequential_1/keras_layer/StatefulPartitionedCall/StatefulPartitionedCall/StatefulPartitionedCall/blocks_34/StatefulPartitionedCall/conv2d_1/Conv2D_bn_offset", "shape": [256], "dtype": "float32"}, {"name": "StatefulPartitionedCall/sequential_1/keras_layer/StatefulPartitionedCall/StatefulPartitionedCall/StatefulPartitionedCall/blocks_39/StatefulPartitionedCall/se/Mean/reduction_indices", "shape": [2], "dtype": "int32"}, {"name": "StatefulPartitionedCall/sequential_1/keras_layer/StatefulPartitionedCall/StatefulPartitionedCall/StatefulPartitionedCall/blocks_39/StatefulPartitionedCall/se/conv2d/Conv2D/ReadVariableOp", "shape": [1, 1, 1536, 64], "dtype": "float32"}, {"name": "StatefulPartitionedCall/sequential_1/keras_layer/StatefulPartitionedCall/StatefulPartitionedCall/StatefulPartitionedCall/blocks_39/StatefulPartitionedCall/se/conv2d/BiasAdd/ReadVariableOp", "shape": [64], "dtype": "float32"}, {"name": "StatefulPartitionedCall/sequential_1/keras_layer/StatefulPartitionedCall/StatefulPartitionedCall/StatefulPartitionedCall/blocks_39/StatefulPartitionedCall/se/conv2d_1/Conv2D/ReadVariableOp", "shape": [1, 1, 64, 1536], "dtype": "float32"}, {"name": "StatefulPartitionedCall/sequential_1/keras_layer/StatefulPartitionedCall/StatefulPartitionedCall/StatefulPartitionedCall/blocks_39/StatefulPartitionedCall/se/conv2d_1/BiasAdd/ReadVariableOp", "shape": [1536], "dtype": "float32"}, {"name": "StatefulPartitionedCall/sequential_1/keras_layer/StatefulPartitionedCall/StatefulPartitionedCall/StatefulPartitionedCall/blocks_38/StatefulPartitionedCall/se/Mean/reduction_indices", "shape": [2], "dtype": "int32"}, {"name": "StatefulPartitionedCall/sequential_1/keras_layer/StatefulPartitionedCall/StatefulPartitionedCall/StatefulPartitionedCall/blocks_38/StatefulPartitionedCall/se/conv2d/Conv2D/ReadVariableOp", "shape": [1, 1, 1536, 64], "dtype": "float32"}, {"name": "StatefulPartitionedCall/sequential_1/keras_layer/StatefulPartitionedCall/StatefulPartitionedCall/StatefulPartitionedCall/blocks_38/StatefulPartitionedCall/se/conv2d/BiasAdd/ReadVariableOp", "shape": [64], "dtype": "float32"}, {"name": "StatefulPartitionedCall/sequential_1/keras_layer/StatefulPartitionedCall/StatefulPartitionedCall/StatefulPartitionedCall/blocks_38/StatefulPartitionedCall/se/conv2d_1/Conv2D/ReadVariableOp", "shape": [1, 1, 64, 1536], "dtype": "float32"}, {"name": "StatefulPartitionedCall/sequential_1/keras_layer/StatefulPartitionedCall/StatefulPartitionedCall/StatefulPartitionedCall/blocks_38/StatefulPartitionedCall/se/conv2d_1/BiasAdd/ReadVariableOp", "shape": [1536], "dtype": "float32"}, {"name": "StatefulPartitionedCall/sequential_1/keras_layer/StatefulPartitionedCall/StatefulPartitionedCall/StatefulPartitionedCall/blocks_37/StatefulPartitionedCall/se/Mean/reduction_indices", "shape": [2], "dtype": "int32"}, {"name": "StatefulPartitionedCall/sequential_1/keras_layer/StatefulPartitionedCall/StatefulPartitionedCall/StatefulPartitionedCall/blocks_37/StatefulPartitionedCall/se/conv2d/Conv2D/ReadVariableOp", "shape": [1, 1, 1536, 64], "dtype": "float32"}, {"name": "StatefulPartitionedCall/sequential_1/keras_layer/StatefulPartitionedCall/StatefulPartitionedCall/StatefulPartitionedCall/blocks_37/StatefulPartitionedCall/se/conv2d/BiasAdd/ReadVariableOp", "shape": [64], "dtype": "float32"}, {"name": "StatefulPartitionedCall/sequential_1/keras_layer/StatefulPartitionedCall/StatefulPartitionedCall/StatefulPartitionedCall/blocks_37/StatefulPartitionedCall/se/conv2d_1/Conv2D/ReadVariableOp", "shape": [1, 1, 64, 1536], "dtype": "float32"}, {"name": "StatefulPartitionedCall/sequential_1/keras_layer/StatefulPartitionedCall/StatefulPartitionedCall/StatefulPartitionedCall/blocks_37/StatefulPartitionedCall/se/conv2d_1/BiasAdd/ReadVariableOp", "shape": [1536], "dtype": "float32"}, {"name": "StatefulPartitionedCall/sequential_1/keras_layer/StatefulPartitionedCall/StatefulPartitionedCall/StatefulPartitionedCall/blocks_36/StatefulPartitionedCall/se/Mean/reduction_indices", "shape": [2], "dtype": "int32"}, {"name": "StatefulPartitionedCall/sequential_1/keras_layer/StatefulPartitionedCall/StatefulPartitionedCall/StatefulPartitionedCall/blocks_36/StatefulPartitionedCall/se/conv2d/Conv2D/ReadVariableOp", "shape": [1, 1, 1536, 64], "dtype": "float32"}, {"name": "StatefulPartitionedCall/sequential_1/keras_layer/StatefulPartitionedCall/StatefulPartitionedCall/StatefulPartitionedCall/blocks_36/StatefulPartitionedCall/se/conv2d/BiasAdd/ReadVariableOp", "shape": [64], "dtype": "float32"}, {"name": "StatefulPartitionedCall/sequential_1/keras_layer/StatefulPartitionedCall/StatefulPartitionedCall/StatefulPartitionedCall/blocks_36/StatefulPartitionedCall/se/conv2d_1/Conv2D/ReadVariableOp", "shape": [1, 1, 64, 1536], "dtype": "float32"}, {"name": "StatefulPartitionedCall/sequential_1/keras_layer/StatefulPartitionedCall/StatefulPartitionedCall/StatefulPartitionedCall/blocks_36/StatefulPartitionedCall/se/conv2d_1/BiasAdd/ReadVariableOp", "shape": [1536], "dtype": "float32"}, {"name": "StatefulPartitionedCall/sequential_1/keras_layer/StatefulPartitionedCall/StatefulPartitionedCall/StatefulPartitionedCall/blocks_35/StatefulPartitionedCall/se/Mean/reduction_indices", "shape": [2], "dtype": "int32"}, {"name": "StatefulPartitionedCall/sequential_1/keras_layer/StatefulPartitionedCall/StatefulPartitionedCall/StatefulPartitionedCall/blocks_35/StatefulPartitionedCall/se/conv2d/Conv2D/ReadVariableOp", "shape": [1, 1, 1536, 64], "dtype": "float32"}, {"name": "StatefulPartitionedCall/sequential_1/keras_layer/StatefulPartitionedCall/StatefulPartitionedCall/StatefulPartitionedCall/blocks_35/StatefulPartitionedCall/se/conv2d/BiasAdd/ReadVariableOp", "shape": [64], "dtype": "float32"}, {"name": "StatefulPartitionedCall/sequential_1/keras_layer/StatefulPartitionedCall/StatefulPartitionedCall/StatefulPartitionedCall/blocks_35/StatefulPartitionedCall/se/conv2d_1/Conv2D/ReadVariableOp", "shape": [1, 1, 64, 1536], "dtype": "float32"}, {"name": "StatefulPartitionedCall/sequential_1/keras_layer/StatefulPartitionedCall/StatefulPartitionedCall/StatefulPartitionedCall/blocks_35/StatefulPartitionedCall/se/conv2d_1/BiasAdd/ReadVariableOp", "shape": [1536], "dtype": "float32"}, {"name": "StatefulPartitionedCall/sequential_1/keras_layer/StatefulPartitionedCall/StatefulPartitionedCall/StatefulPartitionedCall/blocks_34/StatefulPartitionedCall/se/Mean/reduction_indices", "shape": [2], "dtype": "int32"}, {"name": "StatefulPartitionedCall/sequential_1/keras_layer/StatefulPartitionedCall/StatefulPartitionedCall/StatefulPartitionedCall/blocks_34/StatefulPartitionedCall/se/conv2d/Conv2D/ReadVariableOp", "shape": [1, 1, 1536, 64], "dtype": "float32"}, {"name": "StatefulPartitionedCall/sequential_1/keras_layer/StatefulPartitionedCall/StatefulPartitionedCall/StatefulPartitionedCall/blocks_34/StatefulPartitionedCall/se/conv2d/BiasAdd/ReadVariableOp", "shape": [64], "dtype": "float32"}, {"name": "StatefulPartitionedCall/sequential_1/keras_layer/StatefulPartitionedCall/StatefulPartitionedCall/StatefulPartitionedCall/blocks_34/StatefulPartitionedCall/se/conv2d_1/Conv2D/ReadVariableOp", "shape": [1, 1, 64, 1536], "dtype": "float32"}, {"name": "StatefulPartitionedCall/sequential_1/keras_layer/StatefulPartitionedCall/StatefulPartitionedCall/StatefulPartitionedCall/blocks_34/StatefulPartitionedCall/se/conv2d_1/BiasAdd/ReadVariableOp", "shape": [1536], "dtype": "float32"}, {"name": "StatefulPartitionedCall/sequential_1/keras_layer/StatefulPartitionedCall/StatefulPartitionedCall/StatefulPartitionedCall/blocks_33/StatefulPartitionedCall/se/Mean/reduction_indices", "shape": [2], "dtype": "int32"}, {"name": "StatefulPartitionedCall/sequential_1/keras_layer/StatefulPartitionedCall/StatefulPartitionedCall/StatefulPartitionedCall/blocks_33/StatefulPartitionedCall/se/conv2d/Conv2D/ReadVariableOp", "shape": [1, 1, 1536, 64], "dtype": "float32"}, {"name": "StatefulPartitionedCall/sequential_1/keras_layer/StatefulPartitionedCall/StatefulPartitionedCall/StatefulPartitionedCall/blocks_33/StatefulPartitionedCall/se/conv2d/BiasAdd/ReadVariableOp", "shape": [64], "dtype": "float32"}, {"name": "StatefulPartitionedCall/sequential_1/keras_layer/StatefulPartitionedCall/StatefulPartitionedCall/StatefulPartitionedCall/blocks_33/StatefulPartitionedCall/se/conv2d_1/Conv2D/ReadVariableOp", "shape": [1, 1, 64, 1536], "dtype": "float32"}, {"name": "StatefulPartitionedCall/sequential_1/keras_layer/StatefulPartitionedCall/StatefulPartitionedCall/StatefulPartitionedCall/blocks_33/StatefulPartitionedCall/se/conv2d_1/BiasAdd/ReadVariableOp", "shape": [1536], "dtype": "float32"}, {"name": "StatefulPartitionedCall/sequential_1/keras_layer/StatefulPartitionedCall/StatefulPartitionedCall/StatefulPartitionedCall/blocks_32/StatefulPartitionedCall/se/Mean/reduction_indices", "shape": [2], "dtype": "int32"}, {"name": "StatefulPartitionedCall/sequential_1/keras_layer/StatefulPartitionedCall/StatefulPartitionedCall/StatefulPartitionedCall/blocks_32/StatefulPartitionedCall/se/conv2d/Conv2D/ReadVariableOp", "shape": [1, 1, 1536, 64], "dtype": "float32"}, {"name": "StatefulPartitionedCall/sequential_1/keras_layer/StatefulPartitionedCall/StatefulPartitionedCall/StatefulPartitionedCall/blocks_32/StatefulPartitionedCall/se/conv2d/BiasAdd/ReadVariableOp", "shape": [64], "dtype": "float32"}, {"name": "StatefulPartitionedCall/sequential_1/keras_layer/StatefulPartitionedCall/StatefulPartitionedCall/StatefulPartitionedCall/blocks_32/StatefulPartitionedCall/se/conv2d_1/Conv2D/ReadVariableOp", "shape": [1, 1, 64, 1536], "dtype": "float32"}, {"name": "StatefulPartitionedCall/sequential_1/keras_layer/StatefulPartitionedCall/StatefulPartitionedCall/StatefulPartitionedCall/blocks_32/StatefulPartitionedCall/se/conv2d_1/BiasAdd/ReadVariableOp", "shape": [1536], "dtype": "float32"}, {"name": "StatefulPartitionedCall/sequential_1/keras_layer/StatefulPartitionedCall/StatefulPartitionedCall/StatefulPartitionedCall/blocks_31/StatefulPartitionedCall/se/Mean/reduction_indices", "shape": [2], "dtype": "int32"}, {"name": "StatefulPartitionedCall/sequential_1/keras_layer/StatefulPartitionedCall/StatefulPartitionedCall/StatefulPartitionedCall/blocks_31/StatefulPartitionedCall/se/conv2d/Conv2D/ReadVariableOp", "shape": [1, 1, 1536, 64], "dtype": "float32"}, {"name": "StatefulPartitionedCall/sequential_1/keras_layer/StatefulPartitionedCall/StatefulPartitionedCall/StatefulPartitionedCall/blocks_31/StatefulPartitionedCall/se/conv2d/BiasAdd/ReadVariableOp", "shape": [64], "dtype": "float32"}, {"name": "StatefulPartitionedCall/sequential_1/keras_layer/StatefulPartitionedCall/StatefulPartitionedCall/StatefulPartitionedCall/blocks_31/StatefulPartitionedCall/se/conv2d_1/Conv2D/ReadVariableOp", "shape": [1, 1, 64, 1536], "dtype": "float32"}, {"name": "StatefulPartitionedCall/sequential_1/keras_layer/StatefulPartitionedCall/StatefulPartitionedCall/StatefulPartitionedCall/blocks_31/StatefulPartitionedCall/se/conv2d_1/BiasAdd/ReadVariableOp", "shape": [1536], "dtype": "float32"}, {"name": "StatefulPartitionedCall/sequential_1/keras_layer/StatefulPartitionedCall/StatefulPartitionedCall/StatefulPartitionedCall/blocks_30/StatefulPartitionedCall/se/Mean/reduction_indices", "shape": [2], "dtype": "int32"}, {"name": "StatefulPartitionedCall/sequential_1/keras_layer/StatefulPartitionedCall/StatefulPartitionedCall/StatefulPartitionedCall/blocks_30/StatefulPartitionedCall/se/conv2d/Conv2D/ReadVariableOp", "shape": [1, 1, 1536, 64], "dtype": "float32"}, {"name": "StatefulPartitionedCall/sequential_1/keras_layer/StatefulPartitionedCall/StatefulPartitionedCall/StatefulPartitionedCall/blocks_30/StatefulPartitionedCall/se/conv2d/BiasAdd/ReadVariableOp", "shape": [64], "dtype": "float32"}, {"name": "StatefulPartitionedCall/sequential_1/keras_layer/StatefulPartitionedCall/StatefulPartitionedCall/StatefulPartitionedCall/blocks_30/StatefulPartitionedCall/se/conv2d_1/Conv2D/ReadVariableOp", "shape": [1, 1, 64, 1536], "dtype": "float32"}, {"name": "StatefulPartitionedCall/sequential_1/keras_layer/StatefulPartitionedCall/StatefulPartitionedCall/StatefulPartitionedCall/blocks_30/StatefulPartitionedCall/se/conv2d_1/BiasAdd/ReadVariableOp", "shape": [1536], "dtype": "float32"}, {"name": "StatefulPartitionedCall/sequential_1/keras_layer/StatefulPartitionedCall/StatefulPartitionedCall/StatefulPartitionedCall/blocks_29/StatefulPartitionedCall/se/Mean/reduction_indices", "shape": [2], "dtype": "int32"}, {"name": "StatefulPartitionedCall/sequential_1/keras_layer/StatefulPartitionedCall/StatefulPartitionedCall/StatefulPartitionedCall/blocks_29/StatefulPartitionedCall/se/conv2d/Conv2D/ReadVariableOp", "shape": [1, 1, 1536, 64], "dtype": "float32"}, {"name": "StatefulPartitionedCall/sequential_1/keras_layer/StatefulPartitionedCall/StatefulPartitionedCall/StatefulPartitionedCall/blocks_29/StatefulPartitionedCall/se/conv2d/BiasAdd/ReadVariableOp", "shape": [64], "dtype": "float32"}, {"name": "StatefulPartitionedCall/sequential_1/keras_layer/StatefulPartitionedCall/StatefulPartitionedCall/StatefulPartitionedCall/blocks_29/StatefulPartitionedCall/se/conv2d_1/Conv2D/ReadVariableOp", "shape": [1, 1, 64, 1536], "dtype": "float32"}, {"name": "StatefulPartitionedCall/sequential_1/keras_layer/StatefulPartitionedCall/StatefulPartitionedCall/StatefulPartitionedCall/blocks_29/StatefulPartitionedCall/se/conv2d_1/BiasAdd/ReadVariableOp", "shape": [1536], "dtype": "float32"}, {"name": "StatefulPartitionedCall/sequential_1/keras_layer/StatefulPartitionedCall/StatefulPartitionedCall/StatefulPartitionedCall/blocks_28/StatefulPartitionedCall/se/Mean/reduction_indices", "shape": [2], "dtype": "int32"}, {"name": "StatefulPartitionedCall/sequential_1/keras_layer/StatefulPartitionedCall/StatefulPartitionedCall/StatefulPartitionedCall/blocks_28/StatefulPartitionedCall/se/conv2d/Conv2D/ReadVariableOp", "shape": [1, 1, 1536, 64], "dtype": "float32"}, {"name": "StatefulPartitionedCall/sequential_1/keras_layer/StatefulPartitionedCall/StatefulPartitionedCall/StatefulPartitionedCall/blocks_28/StatefulPartitionedCall/se/conv2d/BiasAdd/ReadVariableOp", "shape": [64], "dtype": "float32"}, {"name": "StatefulPartitionedCall/sequential_1/keras_layer/StatefulPartitionedCall/StatefulPartitionedCall/StatefulPartitionedCall/blocks_28/StatefulPartitionedCall/se/conv2d_1/Conv2D/ReadVariableOp", "shape": [1, 1, 64, 1536], "dtype": "float32"}, {"name": "StatefulPartitionedCall/sequential_1/keras_layer/StatefulPartitionedCall/StatefulPartitionedCall/StatefulPartitionedCall/blocks_28/StatefulPartitionedCall/se/conv2d_1/BiasAdd/ReadVariableOp", "shape": [1536], "dtype": "float32"}, {"name": "StatefulPartitionedCall/sequential_1/keras_layer/StatefulPartitionedCall/StatefulPartitionedCall/StatefulPartitionedCall/blocks_27/StatefulPartitionedCall/se/Mean/reduction_indices", "shape": [2], "dtype": "int32"}, {"name": "StatefulPartitionedCall/sequential_1/keras_layer/StatefulPartitionedCall/StatefulPartitionedCall/StatefulPartitionedCall/blocks_27/StatefulPartitionedCall/se/conv2d/Conv2D/ReadVariableOp", "shape": [1, 1, 1536, 64], "dtype": "float32"}, {"name": "StatefulPartitionedCall/sequential_1/keras_layer/StatefulPartitionedCall/StatefulPartitionedCall/StatefulPartitionedCall/blocks_27/StatefulPartitionedCall/se/conv2d/BiasAdd/ReadVariableOp", "shape": [64], "dtype": "float32"}, {"name": "StatefulPartitionedCall/sequential_1/keras_layer/StatefulPartitionedCall/StatefulPartitionedCall/StatefulPartitionedCall/blocks_27/StatefulPartitionedCall/se/conv2d_1/Conv2D/ReadVariableOp", "shape": [1, 1, 64, 1536], "dtype": "float32"}, {"name": "StatefulPartitionedCall/sequential_1/keras_layer/StatefulPartitionedCall/StatefulPartitionedCall/StatefulPartitionedCall/blocks_27/StatefulPartitionedCall/se/conv2d_1/BiasAdd/ReadVariableOp", "shape": [1536], "dtype": "float32"}, {"name": "StatefulPartitionedCall/sequential_1/keras_layer/StatefulPartitionedCall/StatefulPartitionedCall/StatefulPartitionedCall/blocks_26/StatefulPartitionedCall/se/Mean/reduction_indices", "shape": [2], "dtype": "int32"}, {"name": "StatefulPartitionedCall/sequential_1/keras_layer/StatefulPartitionedCall/StatefulPartitionedCall/StatefulPartitionedCall/blocks_26/StatefulPartitionedCall/se/conv2d/Conv2D/ReadVariableOp", "shape": [1, 1, 1536, 64], "dtype": "float32"}, {"name": "StatefulPartitionedCall/sequential_1/keras_layer/StatefulPartitionedCall/StatefulPartitionedCall/StatefulPartitionedCall/blocks_26/StatefulPartitionedCall/se/conv2d/BiasAdd/ReadVariableOp", "shape": [64], "dtype": "float32"}, {"name": "StatefulPartitionedCall/sequential_1/keras_layer/StatefulPartitionedCall/StatefulPartitionedCall/StatefulPartitionedCall/blocks_26/StatefulPartitionedCall/se/conv2d_1/Conv2D/ReadVariableOp", "shape": [1, 1, 64, 1536], "dtype": "float32"}, {"name": "StatefulPartitionedCall/sequential_1/keras_layer/StatefulPartitionedCall/StatefulPartitionedCall/StatefulPartitionedCall/blocks_26/StatefulPartitionedCall/se/conv2d_1/BiasAdd/ReadVariableOp", "shape": [1536], "dtype": "float32"}, {"name": "StatefulPartitionedCall/sequential_1/keras_layer/StatefulPartitionedCall/StatefulPartitionedCall/StatefulPartitionedCall/blocks_25/StatefulPartitionedCall/se/Mean/reduction_indices", "shape": [2], "dtype": "int32"}, {"name": "StatefulPartitionedCall/sequential_1/keras_layer/StatefulPartitionedCall/StatefulPartitionedCall/StatefulPartitionedCall/blocks_25/StatefulPartitionedCall/se/conv2d/Conv2D/ReadVariableOp", "shape": [1, 1, 960, 40], "dtype": "float32"}, {"name": "StatefulPartitionedCall/sequential_1/keras_layer/StatefulPartitionedCall/StatefulPartitionedCall/StatefulPartitionedCall/blocks_25/StatefulPartitionedCall/se/conv2d/BiasAdd/ReadVariableOp", "shape": [40], "dtype": "float32"}, {"name": "StatefulPartitionedCall/sequential_1/keras_layer/StatefulPartitionedCall/StatefulPartitionedCall/StatefulPartitionedCall/blocks_25/StatefulPartitionedCall/se/conv2d_1/Conv2D/ReadVariableOp", "shape": [1, 1, 40, 960], "dtype": "float32"}, {"name": "StatefulPartitionedCall/sequential_1/keras_layer/StatefulPartitionedCall/StatefulPartitionedCall/StatefulPartitionedCall/blocks_25/StatefulPartitionedCall/se/conv2d_1/BiasAdd/ReadVariableOp", "shape": [960], "dtype": "float32"}, {"name": "StatefulPartitionedCall/sequential_1/keras_layer/StatefulPartitionedCall/StatefulPartitionedCall/StatefulPartitionedCall/blocks_24/StatefulPartitionedCall/se/Mean/reduction_indices", "shape": [2], "dtype": "int32"}, {"name": "StatefulPartitionedCall/sequential_1/keras_layer/StatefulPartitionedCall/StatefulPartitionedCall/StatefulPartitionedCall/blocks_24/StatefulPartitionedCall/se/conv2d/Conv2D/ReadVariableOp", "shape": [1, 1, 960, 40], "dtype": "float32"}, {"name": "StatefulPartitionedCall/sequential_1/keras_layer/StatefulPartitionedCall/StatefulPartitionedCall/StatefulPartitionedCall/blocks_24/StatefulPartitionedCall/se/conv2d/BiasAdd/ReadVariableOp", "shape": [40], "dtype": "float32"}, {"name": "StatefulPartitionedCall/sequential_1/keras_layer/StatefulPartitionedCall/StatefulPartitionedCall/StatefulPartitionedCall/blocks_24/StatefulPartitionedCall/se/conv2d_1/Conv2D/ReadVariableOp", "shape": [1, 1, 40, 960], "dtype": "float32"}, {"name": "StatefulPartitionedCall/sequential_1/keras_layer/StatefulPartitionedCall/StatefulPartitionedCall/StatefulPartitionedCall/blocks_24/StatefulPartitionedCall/se/conv2d_1/BiasAdd/ReadVariableOp", "shape": [960], "dtype": "float32"}, {"name": "StatefulPartitionedCall/sequential_1/keras_layer/StatefulPartitionedCall/StatefulPartitionedCall/StatefulPartitionedCall/blocks_23/StatefulPartitionedCall/se/Mean/reduction_indices", "shape": [2], "dtype": "int32"}, {"name": "StatefulPartitionedCall/sequential_1/keras_layer/StatefulPartitionedCall/StatefulPartitionedCall/StatefulPartitionedCall/blocks_23/StatefulPartitionedCall/se/conv2d/Conv2D/ReadVariableOp", "shape": [1, 1, 960, 40], "dtype": "float32"}, {"name": "StatefulPartitionedCall/sequential_1/keras_layer/StatefulPartitionedCall/StatefulPartitionedCall/StatefulPartitionedCall/blocks_23/StatefulPartitionedCall/se/conv2d/BiasAdd/ReadVariableOp", "shape": [40], "dtype": "float32"}, {"name": "StatefulPartitionedCall/sequential_1/keras_layer/StatefulPartitionedCall/StatefulPartitionedCall/StatefulPartitionedCall/blocks_23/StatefulPartitionedCall/se/conv2d_1/Conv2D/ReadVariableOp", "shape": [1, 1, 40, 960], "dtype": "float32"}, {"name": "StatefulPartitionedCall/sequential_1/keras_layer/StatefulPartitionedCall/StatefulPartitionedCall/StatefulPartitionedCall/blocks_23/StatefulPartitionedCall/se/conv2d_1/BiasAdd/ReadVariableOp", "shape": [960], "dtype": "float32"}, {"name": "StatefulPartitionedCall/sequential_1/keras_layer/StatefulPartitionedCall/StatefulPartitionedCall/StatefulPartitionedCall/blocks_22/StatefulPartitionedCall/se/Mean/reduction_indices", "shape": [2], "dtype": "int32"}, {"name": "StatefulPartitionedCall/sequential_1/keras_layer/StatefulPartitionedCall/StatefulPartitionedCall/StatefulPartitionedCall/blocks_22/StatefulPartitionedCall/se/conv2d/Conv2D/ReadVariableOp", "shape": [1, 1, 960, 40], "dtype": "float32"}, {"name": "StatefulPartitionedCall/sequential_1/keras_layer/StatefulPartitionedCall/StatefulPartitionedCall/StatefulPartitionedCall/blocks_22/StatefulPartitionedCall/se/conv2d/BiasAdd/ReadVariableOp", "shape": [40], "dtype": "float32"}, {"name": "StatefulPartitionedCall/sequential_1/keras_layer/StatefulPartitionedCall/StatefulPartitionedCall/StatefulPartitionedCall/blocks_22/StatefulPartitionedCall/se/conv2d_1/Conv2D/ReadVariableOp", "shape": [1, 1, 40, 960], "dtype": "float32"}, {"name": "StatefulPartitionedCall/sequential_1/keras_layer/StatefulPartitionedCall/StatefulPartitionedCall/StatefulPartitionedCall/blocks_22/StatefulPartitionedCall/se/conv2d_1/BiasAdd/ReadVariableOp", "shape": [960], "dtype": "float32"}, {"name": "StatefulPartitionedCall/sequential_1/keras_layer/StatefulPartitionedCall/StatefulPartitionedCall/StatefulPartitionedCall/blocks_21/StatefulPartitionedCall/se/Mean/reduction_indices", "shape": [2], "dtype": "int32"}, {"name": "StatefulPartitionedCall/sequential_1/keras_layer/StatefulPartitionedCall/StatefulPartitionedCall/StatefulPartitionedCall/blocks_21/StatefulPartitionedCall/se/conv2d/Conv2D/ReadVariableOp", "shape": [1, 1, 960, 40], "dtype": "float32"}, {"name": "StatefulPartitionedCall/sequential_1/keras_layer/StatefulPartitionedCall/StatefulPartitionedCall/StatefulPartitionedCall/blocks_21/StatefulPartitionedCall/se/conv2d/BiasAdd/ReadVariableOp", "shape": [40], "dtype": "float32"}, {"name": "StatefulPartitionedCall/sequential_1/keras_layer/StatefulPartitionedCall/StatefulPartitionedCall/StatefulPartitionedCall/blocks_21/StatefulPartitionedCall/se/conv2d_1/Conv2D/ReadVariableOp", "shape": [1, 1, 40, 960], "dtype": "float32"}, {"name": "StatefulPartitionedCall/sequential_1/keras_layer/StatefulPartitionedCall/StatefulPartitionedCall/StatefulPartitionedCall/blocks_21/StatefulPartitionedCall/se/conv2d_1/BiasAdd/ReadVariableOp", "shape": [960], "dtype": "float32"}, {"name": "StatefulPartitionedCall/sequential_1/keras_layer/StatefulPartitionedCall/StatefulPartitionedCall/StatefulPartitionedCall/blocks_20/StatefulPartitionedCall/se/Mean/reduction_indices", "shape": [2], "dtype": "int32"}, {"name": "StatefulPartitionedCall/sequential_1/keras_layer/StatefulPartitionedCall/StatefulPartitionedCall/StatefulPartitionedCall/blocks_20/StatefulPartitionedCall/se/conv2d/Conv2D/ReadVariableOp", "shape": [1, 1, 960, 40], "dtype": "float32"}, {"name": "StatefulPartitionedCall/sequential_1/keras_layer/StatefulPartitionedCall/StatefulPartitionedCall/StatefulPartitionedCall/blocks_20/StatefulPartitionedCall/se/conv2d/BiasAdd/ReadVariableOp", "shape": [40], "dtype": "float32"}, {"name": "StatefulPartitionedCall/sequential_1/keras_layer/StatefulPartitionedCall/StatefulPartitionedCall/StatefulPartitionedCall/blocks_20/StatefulPartitionedCall/se/conv2d_1/Conv2D/ReadVariableOp", "shape": [1, 1, 40, 960], "dtype": "float32"}, {"name": "StatefulPartitionedCall/sequential_1/keras_layer/StatefulPartitionedCall/StatefulPartitionedCall/StatefulPartitionedCall/blocks_20/StatefulPartitionedCall/se/conv2d_1/BiasAdd/ReadVariableOp", "shape": [960], "dtype": "float32"}, {"name": "StatefulPartitionedCall/sequential_1/keras_layer/StatefulPartitionedCall/StatefulPartitionedCall/StatefulPartitionedCall/blocks_19/StatefulPartitionedCall/se/Mean/reduction_indices", "shape": [2], "dtype": "int32"}, {"name": "StatefulPartitionedCall/sequential_1/keras_layer/StatefulPartitionedCall/StatefulPartitionedCall/StatefulPartitionedCall/blocks_19/StatefulPartitionedCall/se/conv2d/Conv2D/ReadVariableOp", "shape": [1, 1, 960, 40], "dtype": "float32"}, {"name": "StatefulPartitionedCall/sequential_1/keras_layer/StatefulPartitionedCall/StatefulPartitionedCall/StatefulPartitionedCall/blocks_19/StatefulPartitionedCall/se/conv2d/BiasAdd/ReadVariableOp", "shape": [40], "dtype": "float32"}, {"name": "StatefulPartitionedCall/sequential_1/keras_layer/StatefulPartitionedCall/StatefulPartitionedCall/StatefulPartitionedCall/blocks_19/StatefulPartitionedCall/se/conv2d_1/Conv2D/ReadVariableOp", "shape": [1, 1, 40, 960], "dtype": "float32"}, {"name": "StatefulPartitionedCall/sequential_1/keras_layer/StatefulPartitionedCall/StatefulPartitionedCall/StatefulPartitionedCall/blocks_19/StatefulPartitionedCall/se/conv2d_1/BiasAdd/ReadVariableOp", "shape": [960], "dtype": "float32"}, {"name": "StatefulPartitionedCall/sequential_1/keras_layer/StatefulPartitionedCall/StatefulPartitionedCall/StatefulPartitionedCall/blocks_18/StatefulPartitionedCall/se/Mean/reduction_indices", "shape": [2], "dtype": "int32"}, {"name": "StatefulPartitionedCall/sequential_1/keras_layer/StatefulPartitionedCall/StatefulPartitionedCall/StatefulPartitionedCall/blocks_18/StatefulPartitionedCall/se/conv2d/Conv2D/ReadVariableOp", "shape": [1, 1, 960, 40], "dtype": "float32"}, {"name": "StatefulPartitionedCall/sequential_1/keras_layer/StatefulPartitionedCall/StatefulPartitionedCall/StatefulPartitionedCall/blocks_18/StatefulPartitionedCall/se/conv2d/BiasAdd/ReadVariableOp", "shape": [40], "dtype": "float32"}, {"name": "StatefulPartitionedCall/sequential_1/keras_layer/StatefulPartitionedCall/StatefulPartitionedCall/StatefulPartitionedCall/blocks_18/StatefulPartitionedCall/se/conv2d_1/Conv2D/ReadVariableOp", "shape": [1, 1, 40, 960], "dtype": "float32"}, {"name": "StatefulPartitionedCall/sequential_1/keras_layer/StatefulPartitionedCall/StatefulPartitionedCall/StatefulPartitionedCall/blocks_18/StatefulPartitionedCall/se/conv2d_1/BiasAdd/ReadVariableOp", "shape": [960], "dtype": "float32"}, {"name": "StatefulPartitionedCall/sequential_1/keras_layer/StatefulPartitionedCall/StatefulPartitionedCall/StatefulPartitionedCall/blocks_17/StatefulPartitionedCall/se/Mean/reduction_indices", "shape": [2], "dtype": "int32"}, {"name": "StatefulPartitionedCall/sequential_1/keras_layer/StatefulPartitionedCall/StatefulPartitionedCall/StatefulPartitionedCall/blocks_17/StatefulPartitionedCall/se/conv2d/Conv2D/ReadVariableOp", "shape": [1, 1, 960, 40], "dtype": "float32"}, {"name": "StatefulPartitionedCall/sequential_1/keras_layer/StatefulPartitionedCall/StatefulPartitionedCall/StatefulPartitionedCall/blocks_17/StatefulPartitionedCall/se/conv2d/BiasAdd/ReadVariableOp", "shape": [40], "dtype": "float32"}, {"name": "StatefulPartitionedCall/sequential_1/keras_layer/StatefulPartitionedCall/StatefulPartitionedCall/StatefulPartitionedCall/blocks_17/StatefulPartitionedCall/se/conv2d_1/Conv2D/ReadVariableOp", "shape": [1, 1, 40, 960], "dtype": "float32"}, {"name": "StatefulPartitionedCall/sequential_1/keras_layer/StatefulPartitionedCall/StatefulPartitionedCall/StatefulPartitionedCall/blocks_17/StatefulPartitionedCall/se/conv2d_1/BiasAdd/ReadVariableOp", "shape": [960], "dtype": "float32"}, {"name": "StatefulPartitionedCall/sequential_1/keras_layer/StatefulPartitionedCall/StatefulPartitionedCall/StatefulPartitionedCall/blocks_16/StatefulPartitionedCall/se/Mean/reduction_indices", "shape": [2], "dtype": "int32"}, {"name": "StatefulPartitionedCall/sequential_1/keras_layer/StatefulPartitionedCall/StatefulPartitionedCall/StatefulPartitionedCall/blocks_16/StatefulPartitionedCall/se/conv2d/Conv2D/ReadVariableOp", "shape": [1, 1, 768, 32], "dtype": "float32"}, {"name": "StatefulPartitionedCall/sequential_1/keras_layer/StatefulPartitionedCall/StatefulPartitionedCall/StatefulPartitionedCall/blocks_16/StatefulPartitionedCall/se/conv2d/BiasAdd/ReadVariableOp", "shape": [32], "dtype": "float32"}, {"name": "StatefulPartitionedCall/sequential_1/keras_layer/StatefulPartitionedCall/StatefulPartitionedCall/StatefulPartitionedCall/blocks_16/StatefulPartitionedCall/se/conv2d_1/Conv2D/ReadVariableOp", "shape": [1, 1, 32, 768], "dtype": "float32"}, {"name": "StatefulPartitionedCall/sequential_1/keras_layer/StatefulPartitionedCall/StatefulPartitionedCall/StatefulPartitionedCall/blocks_16/StatefulPartitionedCall/se/conv2d_1/BiasAdd/ReadVariableOp", "shape": [768], "dtype": "float32"}, {"name": "StatefulPartitionedCall/sequential_1/keras_layer/StatefulPartitionedCall/StatefulPartitionedCall/StatefulPartitionedCall/blocks_15/StatefulPartitionedCall/se/Mean/reduction_indices", "shape": [2], "dtype": "int32"}, {"name": "StatefulPartitionedCall/sequential_1/keras_layer/StatefulPartitionedCall/StatefulPartitionedCall/StatefulPartitionedCall/blocks_15/StatefulPartitionedCall/se/conv2d/Conv2D/ReadVariableOp", "shape": [1, 1, 512, 32], "dtype": "float32"}, {"name": "StatefulPartitionedCall/sequential_1/keras_layer/StatefulPartitionedCall/StatefulPartitionedCall/StatefulPartitionedCall/blocks_15/StatefulPartitionedCall/se/conv2d/BiasAdd/ReadVariableOp", "shape": [32], "dtype": "float32"}, {"name": "StatefulPartitionedCall/sequential_1/keras_layer/StatefulPartitionedCall/StatefulPartitionedCall/StatefulPartitionedCall/blocks_15/StatefulPartitionedCall/se/conv2d_1/Conv2D/ReadVariableOp", "shape": [1, 1, 32, 512], "dtype": "float32"}, {"name": "StatefulPartitionedCall/sequential_1/keras_layer/StatefulPartitionedCall/StatefulPartitionedCall/StatefulPartitionedCall/blocks_15/StatefulPartitionedCall/se/conv2d_1/BiasAdd/ReadVariableOp", "shape": [512], "dtype": "float32"}, {"name": "StatefulPartitionedCall/sequential_1/keras_layer/StatefulPartitionedCall/StatefulPartitionedCall/StatefulPartitionedCall/blocks_14/StatefulPartitionedCall/se/Mean/reduction_indices", "shape": [2], "dtype": "int32"}, {"name": "StatefulPartitionedCall/sequential_1/keras_layer/StatefulPartitionedCall/StatefulPartitionedCall/StatefulPartitionedCall/blocks_14/StatefulPartitionedCall/se/conv2d/Conv2D/ReadVariableOp", "shape": [1, 1, 512, 32], "dtype": "float32"}, {"name": "StatefulPartitionedCall/sequential_1/keras_layer/StatefulPartitionedCall/StatefulPartitionedCall/StatefulPartitionedCall/blocks_14/StatefulPartitionedCall/se/conv2d/BiasAdd/ReadVariableOp", "shape": [32], "dtype": "float32"}, {"name": "StatefulPartitionedCall/sequential_1/keras_layer/StatefulPartitionedCall/StatefulPartitionedCall/StatefulPartitionedCall/blocks_14/StatefulPartitionedCall/se/conv2d_1/Conv2D/ReadVariableOp", "shape": [1, 1, 32, 512], "dtype": "float32"}, {"name": "StatefulPartitionedCall/sequential_1/keras_layer/StatefulPartitionedCall/StatefulPartitionedCall/StatefulPartitionedCall/blocks_14/StatefulPartitionedCall/se/conv2d_1/BiasAdd/ReadVariableOp", "shape": [512], "dtype": "float32"}, {"name": "StatefulPartitionedCall/sequential_1/keras_layer/StatefulPartitionedCall/StatefulPartitionedCall/StatefulPartitionedCall/blocks_13/StatefulPartitionedCall/se/Mean/reduction_indices", "shape": [2], "dtype": "int32"}, {"name": "StatefulPartitionedCall/sequential_1/keras_layer/StatefulPartitionedCall/StatefulPartitionedCall/StatefulPartitionedCall/blocks_13/StatefulPartitionedCall/se/conv2d/Conv2D/ReadVariableOp", "shape": [1, 1, 512, 32], "dtype": "float32"}, {"name": "StatefulPartitionedCall/sequential_1/keras_layer/StatefulPartitionedCall/StatefulPartitionedCall/StatefulPartitionedCall/blocks_13/StatefulPartitionedCall/se/conv2d/BiasAdd/ReadVariableOp", "shape": [32], "dtype": "float32"}, {"name": "StatefulPartitionedCall/sequential_1/keras_layer/StatefulPartitionedCall/StatefulPartitionedCall/StatefulPartitionedCall/blocks_13/StatefulPartitionedCall/se/conv2d_1/Conv2D/ReadVariableOp", "shape": [1, 1, 32, 512], "dtype": "float32"}, {"name": "StatefulPartitionedCall/sequential_1/keras_layer/StatefulPartitionedCall/StatefulPartitionedCall/StatefulPartitionedCall/blocks_13/StatefulPartitionedCall/se/conv2d_1/BiasAdd/ReadVariableOp", "shape": [512], "dtype": "float32"}, {"name": "StatefulPartitionedCall/sequential_1/keras_layer/StatefulPartitionedCall/StatefulPartitionedCall/StatefulPartitionedCall/blocks_12/StatefulPartitionedCall/se/Mean/reduction_indices", "shape": [2], "dtype": "int32"}, {"name": "StatefulPartitionedCall/sequential_1/keras_layer/StatefulPartitionedCall/StatefulPartitionedCall/StatefulPartitionedCall/blocks_12/StatefulPartitionedCall/se/conv2d/Conv2D/ReadVariableOp", "shape": [1, 1, 512, 32], "dtype": "float32"}, {"name": "StatefulPartitionedCall/sequential_1/keras_layer/StatefulPartitionedCall/StatefulPartitionedCall/StatefulPartitionedCall/blocks_12/StatefulPartitionedCall/se/conv2d/BiasAdd/ReadVariableOp", "shape": [32], "dtype": "float32"}, {"name": "StatefulPartitionedCall/sequential_1/keras_layer/StatefulPartitionedCall/StatefulPartitionedCall/StatefulPartitionedCall/blocks_12/StatefulPartitionedCall/se/conv2d_1/Conv2D/ReadVariableOp", "shape": [1, 1, 32, 512], "dtype": "float32"}, {"name": "StatefulPartitionedCall/sequential_1/keras_layer/StatefulPartitionedCall/StatefulPartitionedCall/StatefulPartitionedCall/blocks_12/StatefulPartitionedCall/se/conv2d_1/BiasAdd/ReadVariableOp", "shape": [512], "dtype": "float32"}, {"name": "StatefulPartitionedCall/sequential_1/keras_layer/StatefulPartitionedCall/StatefulPartitionedCall/StatefulPartitionedCall/blocks_11/StatefulPartitionedCall/se/Mean/reduction_indices", "shape": [2], "dtype": "int32"}, {"name": "StatefulPartitionedCall/sequential_1/keras_layer/StatefulPartitionedCall/StatefulPartitionedCall/StatefulPartitionedCall/blocks_11/StatefulPartitionedCall/se/conv2d/Conv2D/ReadVariableOp", "shape": [1, 1, 512, 32], "dtype": "float32"}, {"name": "StatefulPartitionedCall/sequential_1/keras_layer/StatefulPartitionedCall/StatefulPartitionedCall/StatefulPartitionedCall/blocks_11/StatefulPartitionedCall/se/conv2d/BiasAdd/ReadVariableOp", "shape": [32], "dtype": "float32"}, {"name": "StatefulPartitionedCall/sequential_1/keras_layer/StatefulPartitionedCall/StatefulPartitionedCall/StatefulPartitionedCall/blocks_11/StatefulPartitionedCall/se/conv2d_1/Conv2D/ReadVariableOp", "shape": [1, 1, 32, 512], "dtype": "float32"}, {"name": "StatefulPartitionedCall/sequential_1/keras_layer/StatefulPartitionedCall/StatefulPartitionedCall/StatefulPartitionedCall/blocks_11/StatefulPartitionedCall/se/conv2d_1/BiasAdd/ReadVariableOp", "shape": [512], "dtype": "float32"}, {"name": "StatefulPartitionedCall/sequential_1/keras_layer/StatefulPartitionedCall/StatefulPartitionedCall/StatefulPartitionedCall/blocks_10/StatefulPartitionedCall/se/Mean/reduction_indices", "shape": [2], "dtype": "int32"}, {"name": "StatefulPartitionedCall/sequential_1/keras_layer/StatefulPartitionedCall/StatefulPartitionedCall/StatefulPartitionedCall/blocks_10/StatefulPartitionedCall/se/conv2d/Conv2D/ReadVariableOp", "shape": [1, 1, 256, 16], "dtype": "float32"}, {"name": "StatefulPartitionedCall/sequential_1/keras_layer/StatefulPartitionedCall/StatefulPartitionedCall/StatefulPartitionedCall/blocks_10/StatefulPartitionedCall/se/conv2d/BiasAdd/ReadVariableOp", "shape": [16], "dtype": "float32"}, {"name": "StatefulPartitionedCall/sequential_1/keras_layer/StatefulPartitionedCall/StatefulPartitionedCall/StatefulPartitionedCall/blocks_10/StatefulPartitionedCall/se/conv2d_1/Conv2D/ReadVariableOp", "shape": [1, 1, 16, 256], "dtype": "float32"}, {"name": "StatefulPartitionedCall/sequential_1/keras_layer/StatefulPartitionedCall/StatefulPartitionedCall/StatefulPartitionedCall/blocks_10/StatefulPartitionedCall/se/conv2d_1/BiasAdd/ReadVariableOp", "shape": [256], "dtype": "float32"}, {"name": "StatefulPartitionedCall/sequential_1/keras_layer/StatefulPartitionedCall/StatefulPartitionedCall/StatefulPartitionedCall/head/StatefulPartitionedCall/global_average_pooling2d/Mean/reduction_indices", "shape": [2], "dtype": "int32"}, {"name": "StatefulPartitionedCall/sequential_1/keras_layer/StatefulPartitionedCall/StatefulPartitionedCall/StatefulPartitionedCall/head/dense/StatefulPartitionedCall/MatMul/ReadVariableOp", "shape": [1280, 1000], "dtype": "float32"}, {"name": "StatefulPartitionedCall/sequential_1/keras_layer/StatefulPartitionedCall/StatefulPartitionedCall/StatefulPartitionedCall/head/dense/StatefulPartitionedCall/BiasAdd/ReadVariableOp", "shape": [1000], "dtype": "float32"}]}]}